…
==================================================================================================
Total params: 54,425,859
Trainable params: 54,414,979
Non-trainable params: 10,880
__________________________________________________________________________________________________
Model: "model"
__________________________________________________________________________________________________
Layer (type)                    Output Shape         Param #     Connected to                     
==================================================================================================
input_1 (InputLayer)            [(None, 256, 256, 3) 0                                            
__________________________________________________________________________________________________
sequential_2 (Sequential)       (None, 128, 128, 64) 3072        input_1[0][0]                    
__________________________________________________________________________________________________
sequential_3 (Sequential)       (None, 64, 64, 128)  131584      sequential_2[0][0]               
__________________________________________________________________________________________________
sequential_4 (Sequential)       (None, 32, 32, 256)  525312      sequential_3[0][0]               
__________________________________________________________________________________________________
sequential_5 (Sequential)       (None, 16, 16, 512)  2099200     sequential_4[0][0]               
__________________________________________________________________________________________________
sequential_6 (Sequential)       (None, 8, 8, 512)    4196352     sequential_5[0][0]               
__________________________________________________________________________________________________
sequential_7 (Sequential)       (None, 4, 4, 512)    4196352     sequential_6[0][0]               
__________________________________________________________________________________________________
sequential_8 (Sequential)       (None, 2, 2, 512)    4196352     sequential_7[0][0]               
__________________________________________________________________________________________________
sequential_9 (Sequential)       (None, 1, 1, 512)    4196352     sequential_8[0][0]               
__________________________________________________________________________________________________
sequential_10 (Sequential)      (None, 2, 2, 512)    4196352     sequential_9[0][0]               
__________________________________________________________________________________________________
concatenate (Concatenate)       (None, 2, 2, 1024)   0           sequential_10[0][0]              
                                                                 sequential_8[0][0]               
__________________________________________________________________________________________________
sequential_11 (Sequential)      (None, 4, 4, 512)    8390656     concatenate[0][0]                
__________________________________________________________________________________________________
concatenate_1 (Concatenate)     (None, 4, 4, 1024)   0           sequential_11[0][0]              
                                                                 sequential_7[0][0]               
__________________________________________________________________________________________________
sequential_12 (Sequential)      (None, 8, 8, 512)    8390656     concatenate_1[0][0]              
__________________________________________________________________________________________________
concatenate_2 (Concatenate)     (None, 8, 8, 1024)   0           sequential_12[0][0]              
                                                                 sequential_6[0][0]               
__________________________________________________________________________________________________
sequential_13 (Sequential)      (None, 16, 16, 512)  8390656     concatenate_2[0][0]              
__________________________________________________________________________________________________
concatenate_3 (Concatenate)     (None, 16, 16, 1024) 0           sequential_13[0][0]              
                                                                 sequential_5[0][0]               
__________________________________________________________________________________________________
sequential_14 (Sequential)      (None, 32, 32, 256)  4195328     concatenate_3[0][0]              
__________________________________________________________________________________________________
concatenate_4 (Concatenate)     (None, 32, 32, 512)  0           sequential_14[0][0]              
                                                                 sequential_4[0][0]               
__________________________________________________________________________________________________
sequential_15 (Sequential)      (None, 64, 64, 128)  1049088     concatenate_4[0][0]              
__________________________________________________________________________________________________
concatenate_5 (Concatenate)     (None, 64, 64, 256)  0           sequential_15[0][0]              
                                                                 sequential_3[0][0]               
__________________________________________________________________________________________________
sequential_16 (Sequential)      (None, 128, 128, 64) 262400      concatenate_5[0][0]              
__________________________________________________________________________________________________
concatenate_6 (Concatenate)     (None, 128, 128, 128 0           sequential_16[0][0]              
                                                                 sequential_2[0][0]               
__________________________________________________________________________________________________
conv2d_transpose_8 (Conv2DTrans (None, 256, 256, 3)  6147        concatenate_6[0][0]              
==================================================================================================
Total params: 54,425,859
Trainable params: 54,414,979
Non-trainable params: 10,880
__________________________________________________________________________________________________
Model: "model_1"
__________________________________________________________________________________________________
Layer (type)                    Output Shape         Param #     Connected to                     
==================================================================================================
input_image (InputLayer)        [(None, 256, 256, 3) 0                                            
__________________________________________________________________________________________________
target_image (InputLayer)       [(None, 256, 256, 3) 0                                            
__________________________________________________________________________________________________
concatenate_7 (Concatenate)     (None, 256, 256, 6)  0           input_image[0][0]                
                                                                 target_image[0][0]               
__________________________________________________________________________________________________
sequential_17 (Sequential)      (None, 128, 128, 64) 6144        concatenate_7[0][0]              
__________________________________________________________________________________________________
sequential_18 (Sequential)      (None, 64, 64, 128)  131584      sequential_17[0][0]              
__________________________________________________________________________________________________
sequential_19 (Sequential)      (None, 32, 32, 256)  525312      sequential_18[0][0]              
__________________________________________________________________________________________________
zero_padding2d (ZeroPadding2D)  (None, 34, 34, 256)  0           sequential_19[0][0]              
__________________________________________________________________________________________________
conv2d_12 (Conv2D)              (None, 31, 31, 512)  2097152     zero_padding2d[0][0]             
__________________________________________________________________________________________________
batch_normalization_18 (BatchNo (None, 31, 31, 512)  2048        conv2d_12[0][0]                  
__________________________________________________________________________________________________
leaky_re_lu_12 (LeakyReLU)      (None, 31, 31, 512)  0           batch_normalization_18[0][0]     
__________________________________________________________________________________________________
zero_padding2d_1 (ZeroPadding2D (None, 33, 33, 512)  0           leaky_re_lu_12[0][0]             
__________________________________________________________________________________________________
conv2d_13 (Conv2D)              (None, 30, 30, 1)    8193        zero_padding2d_1[0][0]           
==================================================================================================
Total params: 2,770,433
Trainable params: 2,768,641
Non-trainable params: 1,792
__________________________________________________________________________________________________
Model: "model"
__________________________________________________________________________________________________
…
==================================================================================================
Total params: 54,425,859
Trainable params: 54,414,979
Non-trainable params: 10,880
__________________________________________________________________________________________________
Model: "model"
__________________________________________________________________________________________________
Layer (type)                    Output Shape         Param #     Connected to                     
==================================================================================================
input_1 (InputLayer)            [(None, 256, 256, 3) 0                                            
__________________________________________________________________________________________________
sequential_2 (Sequential)       (None, 128, 128, 64) 3072        input_1[0][0]                    
__________________________________________________________________________________________________
sequential_3 (Sequential)       (None, 64, 64, 128)  131584      sequential_2[0][0]               
__________________________________________________________________________________________________
sequential_4 (Sequential)       (None, 32, 32, 256)  525312      sequential_3[0][0]               
__________________________________________________________________________________________________
sequential_5 (Sequential)       (None, 16, 16, 512)  2099200     sequential_4[0][0]               
__________________________________________________________________________________________________
sequential_6 (Sequential)       (None, 8, 8, 512)    4196352     sequential_5[0][0]               
__________________________________________________________________________________________________
sequential_7 (Sequential)       (None, 4, 4, 512)    4196352     sequential_6[0][0]               
__________________________________________________________________________________________________
sequential_8 (Sequential)       (None, 2, 2, 512)    4196352     sequential_7[0][0]               
__________________________________________________________________________________________________
sequential_9 (Sequential)       (None, 1, 1, 512)    4196352     sequential_8[0][0]               
__________________________________________________________________________________________________
sequential_10 (Sequential)      (None, 2, 2, 512)    4196352     sequential_9[0][0]               
__________________________________________________________________________________________________
concatenate (Concatenate)       (None, 2, 2, 1024)   0           sequential_10[0][0]              
                                                                 sequential_8[0][0]               
__________________________________________________________________________________________________
sequential_11 (Sequential)      (None, 4, 4, 512)    8390656     concatenate[0][0]                
__________________________________________________________________________________________________
concatenate_1 (Concatenate)     (None, 4, 4, 1024)   0           sequential_11[0][0]              
                                                                 sequential_7[0][0]               
__________________________________________________________________________________________________
sequential_12 (Sequential)      (None, 8, 8, 512)    8390656     concatenate_1[0][0]              
__________________________________________________________________________________________________
concatenate_2 (Concatenate)     (None, 8, 8, 1024)   0           sequential_12[0][0]              
                                                                 sequential_6[0][0]               
__________________________________________________________________________________________________
sequential_13 (Sequential)      (None, 16, 16, 512)  8390656     concatenate_2[0][0]              
__________________________________________________________________________________________________
concatenate_3 (Concatenate)     (None, 16, 16, 1024) 0           sequential_13[0][0]              
                                                                 sequential_5[0][0]               
__________________________________________________________________________________________________
sequential_14 (Sequential)      (None, 32, 32, 256)  4195328     concatenate_3[0][0]              
__________________________________________________________________________________________________
concatenate_4 (Concatenate)     (None, 32, 32, 512)  0           sequential_14[0][0]              
                                                                 sequential_4[0][0]               
__________________________________________________________________________________________________
sequential_15 (Sequential)      (None, 64, 64, 128)  1049088     concatenate_4[0][0]              
__________________________________________________________________________________________________
concatenate_5 (Concatenate)     (None, 64, 64, 256)  0           sequential_15[0][0]              
                                                                 sequential_3[0][0]               
__________________________________________________________________________________________________
sequential_16 (Sequential)      (None, 128, 128, 64) 262400      concatenate_5[0][0]              
__________________________________________________________________________________________________
concatenate_6 (Concatenate)     (None, 128, 128, 128 0           sequential_16[0][0]              
                                                                 sequential_2[0][0]               
__________________________________________________________________________________________________
conv2d_transpose_8 (Conv2DTrans (None, 256, 256, 3)  6147        concatenate_6[0][0]              
==================================================================================================
Total params: 54,425,859
Trainable params: 54,414,979
Non-trainable params: 10,880
__________________________________________________________________________________________________
Model: "model_1"
__________________________________________________________________________________________________
Layer (type)                    Output Shape         Param #     Connected to                     
==================================================================================================
input_image (InputLayer)        [(None, 256, 256, 3) 0                                            
__________________________________________________________________________________________________
target_image (InputLayer)       [(None, 256, 256, 3) 0                                            
__________________________________________________________________________________________________
concatenate_7 (Concatenate)     (None, 256, 256, 6)  0           input_image[0][0]                
                                                                 target_image[0][0]               
__________________________________________________________________________________________________
sequential_17 (Sequential)      (None, 128, 128, 64) 6144        concatenate_7[0][0]              
__________________________________________________________________________________________________
sequential_18 (Sequential)      (None, 64, 64, 128)  131584      sequential_17[0][0]              
__________________________________________________________________________________________________
sequential_19 (Sequential)      (None, 32, 32, 256)  525312      sequential_18[0][0]              
__________________________________________________________________________________________________
zero_padding2d (ZeroPadding2D)  (None, 34, 34, 256)  0           sequential_19[0][0]              
__________________________________________________________________________________________________
conv2d_12 (Conv2D)              (None, 31, 31, 512)  2097152     zero_padding2d[0][0]             
__________________________________________________________________________________________________
batch_normalization_18 (BatchNo (None, 31, 31, 512)  2048        conv2d_12[0][0]                  
__________________________________________________________________________________________________
leaky_re_lu_12 (LeakyReLU)      (None, 31, 31, 512)  0           batch_normalization_18[0][0]     
__________________________________________________________________________________________________
zero_padding2d_1 (ZeroPadding2D (None, 33, 33, 512)  0           leaky_re_lu_12[0][0]             
__________________________________________________________________________________________________
conv2d_13 (Conv2D)              (None, 30, 30, 1)    8193        zero_padding2d_1[0][0]           
==================================================================================================
Total params: 2,770,433
Trainable params: 2,768,641
Non-trainable params: 1,792
__________________________________________________________________________________________________
Model: "model_2"
__________________________________________________________________________________________________
Layer (type)                    Output Shape         Param #     Connected to                     
==================================================================================================
input_image (InputLayer)        [(None, 256, 256, 3) 0                                            
__________________________________________________________________________________________________
target_image (InputLayer)       [(None, 256, 256, 3) 0                                            
__________________________________________________________________________________________________
concatenate_8 (Concatenate)     (None, 256, 256, 6)  0           input_image[0][0]                
                                                                 target_image[0][0]               
__________________________________________________________________________________________________
sequential_20 (Sequential)      (None, 128, 128, 64) 6144        concatenate_8[0][0]              
__________________________________________________________________________________________________
sequential_21 (Sequential)      (None, 64, 64, 128)  131584      sequential_20[0][0]              
__________________________________________________________________________________________________
sequential_22 (Sequential)      (None, 32, 32, 256)  525312      sequential_21[0][0]              
__________________________________________________________________________________________________
zero_padding2d_2 (ZeroPadding2D (None, 34, 34, 256)  0           sequential_22[0][0]              
__________________________________________________________________________________________________
conv2d_17 (Conv2D)              (None, 31, 31, 512)  2097152     zero_padding2d_2[0][0]           
__________________________________________________________________________________________________
batch_normalization_21 (BatchNo (None, 31, 31, 512)  2048        conv2d_17[0][0]                  
__________________________________________________________________________________________________
leaky_re_lu_16 (LeakyReLU)      (None, 31, 31, 512)  0           batch_normalization_21[0][0]     
__________________________________________________________________________________________________
zero_padding2d_3 (ZeroPadding2D (None, 33, 33, 512)  0           leaky_re_lu_16[0][0]             
__________________________________________________________________________________________________
conv2d_18 (Conv2D)              (None, 30, 30, 1)    8193        zero_padding2d_3[0][0]           
==================================================================================================
Total params: 2,770,433
Trainable params: 2,768,641
Non-trainable params: 1,792
__________________________________________________________________________________________________
Model: "model_3"
__________________________________________________________________________________________________
Layer (type)                    Output Shape         Param #     Connected to                     
==================================================================================================
input_image (InputLayer)        [(None, 256, 256, 3) 0                                            
__________________________________________________________________________________________________
target_image (InputLayer)       [(None, 256, 256, 3) 0                                            
__________________________________________________________________________________________________
concatenate_9 (Concatenate)     (None, 256, 256, 6)  0           input_image[0][0]                
                                                                 target_image[0][0]               
__________________________________________________________________________________________________
sequential_23 (Sequential)      (None, 128, 128, 64) 6144        concatenate_9[0][0]              
__________________________________________________________________________________________________
sequential_24 (Sequential)      (None, 64, 64, 128)  131584      sequential_23[0][0]              
__________________________________________________________________________________________________
sequential_25 (Sequential)      (None, 32, 32, 256)  525312      sequential_24[0][0]              
__________________________________________________________________________________________________
zero_padding2d_4 (ZeroPadding2D (None, 34, 34, 256)  0           sequential_25[0][0]              
__________________________________________________________________________________________________
conv2d_22 (Conv2D)              (None, 31, 31, 512)  2097152     zero_padding2d_4[0][0]           
__________________________________________________________________________________________________
batch_normalization_24 (BatchNo (None, 31, 31, 512)  2048        conv2d_22[0][0]                  
__________________________________________________________________________________________________
leaky_re_lu_20 (LeakyReLU)      (None, 31, 31, 512)  0           batch_normalization_24[0][0]     
__________________________________________________________________________________________________
zero_padding2d_5 (ZeroPadding2D (None, 33, 33, 512)  0           leaky_re_lu_20[0][0]             
__________________________________________________________________________________________________
conv2d_23 (Conv2D)              (None, 30, 30, 1)    8193        zero_padding2d_5[0][0]           
==================================================================================================
Total params: 2,770,433
Trainable params: 2,768,641
Non-trainable params: 1,792
__________________________________________________________________________________________________
Model: "model_4"
__________________________________________________________________________________________________
Layer (type)                    Output Shape         Param #     Connected to                     
==================================================================================================
input_image (InputLayer)        [(None, 256, 256, 3) 0                                            
__________________________________________________________________________________________________
target_image (InputLayer)       [(None, 256, 256, 3) 0                                            
__________________________________________________________________________________________________
concatenate_10 (Concatenate)    (None, 256, 256, 6)  0           input_image[0][0]                
                                                                 target_image[0][0]               
__________________________________________________________________________________________________
sequential_26 (Sequential)      (None, 128, 128, 64) 6144        concatenate_10[0][0]             
__________________________________________________________________________________________________
sequential_27 (Sequential)      (None, 64, 64, 128)  131584      sequential_26[0][0]              
__________________________________________________________________________________________________
sequential_28 (Sequential)      (None, 32, 32, 256)  525312      sequential_27[0][0]              
__________________________________________________________________________________________________
zero_padding2d_6 (ZeroPadding2D (None, 34, 34, 256)  0           sequential_28[0][0]              
__________________________________________________________________________________________________
conv2d_27 (Conv2D)              (None, 31, 31, 512)  2097152     zero_padding2d_6[0][0]           
__________________________________________________________________________________________________
batch_normalization_27 (BatchNo (None, 31, 31, 512)  2048        conv2d_27[0][0]                  
__________________________________________________________________________________________________
leaky_re_lu_24 (LeakyReLU)      (None, 31, 31, 512)  0           batch_normalization_27[0][0]     
__________________________________________________________________________________________________
zero_padding2d_7 (ZeroPadding2D (None, 33, 33, 512)  0           leaky_re_lu_24[0][0]             
__________________________________________________________________________________________________
conv2d_28 (Conv2D)              (None, 30, 30, 1)    8193        zero_padding2d_7[0][0]           
==================================================================================================
Total params: 2,770,433
Trainable params: 2,768,641
Non-trainable params: 1,792
__________________________________________________________________________________________________
Model: "model_5"
__________________________________________________________________________________________________
Layer (type)                    Output Shape         Param #     Connected to                     
==================================================================================================
input_image (InputLayer)        [(None, 256, 256, 3) 0                                            
__________________________________________________________________________________________________
target_image (InputLayer)       [(None, 256, 256, 3) 0                                            
__________________________________________________________________________________________________
concatenate_11 (Concatenate)    (None, 256, 256, 6)  0           input_image[0][0]                
                                                                 target_image[0][0]               
__________________________________________________________________________________________________
sequential_29 (Sequential)      (None, 128, 128, 64) 6144        concatenate_11[0][0]             
__________________________________________________________________________________________________
sequential_30 (Sequential)      (None, 64, 64, 128)  131584      sequential_29[0][0]              
__________________________________________________________________________________________________
sequential_31 (Sequential)      (None, 32, 32, 256)  525312      sequential_30[0][0]              
__________________________________________________________________________________________________
zero_padding2d_8 (ZeroPadding2D (None, 34, 34, 256)  0           sequential_31[0][0]              
__________________________________________________________________________________________________
conv2d_32 (Conv2D)              (None, 31, 31, 512)  2097152     zero_padding2d_8[0][0]           
__________________________________________________________________________________________________
batch_normalization_30 (BatchNo (None, 31, 31, 512)  2048        conv2d_32[0][0]                  
__________________________________________________________________________________________________
leaky_re_lu_28 (LeakyReLU)      (None, 31, 31, 512)  0           batch_normalization_30[0][0]     
__________________________________________________________________________________________________
zero_padding2d_9 (ZeroPadding2D (None, 33, 33, 512)  0           leaky_re_lu_28[0][0]             
__________________________________________________________________________________________________
conv2d_33 (Conv2D)              (None, 30, 30, 1)    8193        zero_padding2d_9[0][0]           
==================================================================================================
Total params: 2,770,433
Trainable params: 2,768,641
Non-trainable params: 1,792
__________________________________________________________________________________________________
Model: "model"
__________________________________________________________________________________________________
…
==================================================================================================
Total params: 54,425,859
Trainable params: 54,414,979
Non-trainable params: 10,880
__________________________________________________________________________________________________
Model: "model"
__________________________________________________________________________________________________
Layer (type)                    Output Shape         Param #     Connected to                     
==================================================================================================
input_1 (InputLayer)            [(None, 256, 256, 3) 0                                            
__________________________________________________________________________________________________
sequential_2 (Sequential)       (None, 128, 128, 64) 3072        input_1[0][0]                    
__________________________________________________________________________________________________
sequential_3 (Sequential)       (None, 64, 64, 128)  131584      sequential_2[0][0]               
__________________________________________________________________________________________________
sequential_4 (Sequential)       (None, 32, 32, 256)  525312      sequential_3[0][0]               
__________________________________________________________________________________________________
sequential_5 (Sequential)       (None, 16, 16, 512)  2099200     sequential_4[0][0]               
__________________________________________________________________________________________________
sequential_6 (Sequential)       (None, 8, 8, 512)    4196352     sequential_5[0][0]               
__________________________________________________________________________________________________
sequential_7 (Sequential)       (None, 4, 4, 512)    4196352     sequential_6[0][0]               
__________________________________________________________________________________________________
sequential_8 (Sequential)       (None, 2, 2, 512)    4196352     sequential_7[0][0]               
__________________________________________________________________________________________________
sequential_9 (Sequential)       (None, 1, 1, 512)    4196352     sequential_8[0][0]               
__________________________________________________________________________________________________
sequential_10 (Sequential)      (None, 2, 2, 512)    4196352     sequential_9[0][0]               
__________________________________________________________________________________________________
concatenate (Concatenate)       (None, 2, 2, 1024)   0           sequential_10[0][0]              
                                                                 sequential_8[0][0]               
__________________________________________________________________________________________________
sequential_11 (Sequential)      (None, 4, 4, 512)    8390656     concatenate[0][0]                
__________________________________________________________________________________________________
concatenate_1 (Concatenate)     (None, 4, 4, 1024)   0           sequential_11[0][0]              
                                                                 sequential_7[0][0]               
__________________________________________________________________________________________________
sequential_12 (Sequential)      (None, 8, 8, 512)    8390656     concatenate_1[0][0]              
__________________________________________________________________________________________________
concatenate_2 (Concatenate)     (None, 8, 8, 1024)   0           sequential_12[0][0]              
                                                                 sequential_6[0][0]               
__________________________________________________________________________________________________
sequential_13 (Sequential)      (None, 16, 16, 512)  8390656     concatenate_2[0][0]              
__________________________________________________________________________________________________
concatenate_3 (Concatenate)     (None, 16, 16, 1024) 0           sequential_13[0][0]              
                                                                 sequential_5[0][0]               
__________________________________________________________________________________________________
sequential_14 (Sequential)      (None, 32, 32, 256)  4195328     concatenate_3[0][0]              
__________________________________________________________________________________________________
concatenate_4 (Concatenate)     (None, 32, 32, 512)  0           sequential_14[0][0]              
                                                                 sequential_4[0][0]               
__________________________________________________________________________________________________
sequential_15 (Sequential)      (None, 64, 64, 128)  1049088     concatenate_4[0][0]              
__________________________________________________________________________________________________
concatenate_5 (Concatenate)     (None, 64, 64, 256)  0           sequential_15[0][0]              
                                                                 sequential_3[0][0]               
__________________________________________________________________________________________________
sequential_16 (Sequential)      (None, 128, 128, 64) 262400      concatenate_5[0][0]              
__________________________________________________________________________________________________
concatenate_6 (Concatenate)     (None, 128, 128, 128 0           sequential_16[0][0]              
                                                                 sequential_2[0][0]               
__________________________________________________________________________________________________
conv2d_transpose_8 (Conv2DTrans (None, 256, 256, 3)  6147        concatenate_6[0][0]              
==================================================================================================
Total params: 54,425,859
Trainable params: 54,414,979
Non-trainable params: 10,880
__________________________________________________________________________________________________
Model: "model_1"
__________________________________________________________________________________________________
Layer (type)                    Output Shape         Param #     Connected to                     
==================================================================================================
input_image (InputLayer)        [(None, 256, 256, 3) 0                                            
__________________________________________________________________________________________________
target_image (InputLayer)       [(None, 256, 256, 3) 0                                            
__________________________________________________________________________________________________
concatenate_7 (Concatenate)     (None, 256, 256, 6)  0           input_image[0][0]                
                                                                 target_image[0][0]               
__________________________________________________________________________________________________
sequential_17 (Sequential)      (None, 128, 128, 64) 6144        concatenate_7[0][0]              
__________________________________________________________________________________________________
sequential_18 (Sequential)      (None, 64, 64, 128)  131584      sequential_17[0][0]              
__________________________________________________________________________________________________
sequential_19 (Sequential)      (None, 32, 32, 256)  525312      sequential_18[0][0]              
__________________________________________________________________________________________________
zero_padding2d (ZeroPadding2D)  (None, 34, 34, 256)  0           sequential_19[0][0]              
__________________________________________________________________________________________________
conv2d_12 (Conv2D)              (None, 31, 31, 512)  2097152     zero_padding2d[0][0]             
__________________________________________________________________________________________________
batch_normalization_18 (BatchNo (None, 31, 31, 512)  2048        conv2d_12[0][0]                  
__________________________________________________________________________________________________
leaky_re_lu_12 (LeakyReLU)      (None, 31, 31, 512)  0           batch_normalization_18[0][0]     
__________________________________________________________________________________________________
zero_padding2d_1 (ZeroPadding2D (None, 33, 33, 512)  0           leaky_re_lu_12[0][0]             
__________________________________________________________________________________________________
conv2d_13 (Conv2D)              (None, 30, 30, 1)    8193        zero_padding2d_1[0][0]           
==================================================================================================
Total params: 2,770,433
Trainable params: 2,768,641
Non-trainable params: 1,792
__________________________________________________________________________________________________
Model: "model_2"
__________________________________________________________________________________________________
Layer (type)                    Output Shape         Param #     Connected to                     
==================================================================================================
input_image (InputLayer)        [(None, 256, 256, 3) 0                                            
__________________________________________________________________________________________________
target_image (InputLayer)       [(None, 256, 256, 3) 0                                            
__________________________________________________________________________________________________
concatenate_8 (Concatenate)     (None, 256, 256, 6)  0           input_image[0][0]                
                                                                 target_image[0][0]               
__________________________________________________________________________________________________
sequential_20 (Sequential)      (None, 128, 128, 64) 6144        concatenate_8[0][0]              
__________________________________________________________________________________________________
sequential_21 (Sequential)      (None, 64, 64, 128)  131584      sequential_20[0][0]              
__________________________________________________________________________________________________
sequential_22 (Sequential)      (None, 32, 32, 256)  525312      sequential_21[0][0]              
__________________________________________________________________________________________________
zero_padding2d_2 (ZeroPadding2D (None, 34, 34, 256)  0           sequential_22[0][0]              
__________________________________________________________________________________________________
conv2d_17 (Conv2D)              (None, 31, 31, 512)  2097152     zero_padding2d_2[0][0]           
__________________________________________________________________________________________________
batch_normalization_21 (BatchNo (None, 31, 31, 512)  2048        conv2d_17[0][0]                  
__________________________________________________________________________________________________
leaky_re_lu_16 (LeakyReLU)      (None, 31, 31, 512)  0           batch_normalization_21[0][0]     
__________________________________________________________________________________________________
zero_padding2d_3 (ZeroPadding2D (None, 33, 33, 512)  0           leaky_re_lu_16[0][0]             
__________________________________________________________________________________________________
conv2d_18 (Conv2D)              (None, 30, 30, 1)    8193        zero_padding2d_3[0][0]           
==================================================================================================
Total params: 2,770,433
Trainable params: 2,768,641
Non-trainable params: 1,792
__________________________________________________________________________________________________
Model: "model"
__________________________________________________________________________________________________
…
==================================================================================================
Total params: 54,425,859
Trainable params: 54,414,979
Non-trainable params: 10,880
__________________________________________________________________________________________________
Model: "model"
__________________________________________________________________________________________________
Layer (type)                    Output Shape         Param #     Connected to                     
==================================================================================================
input_1 (InputLayer)            [(None, 256, 256, 3) 0                                            
__________________________________________________________________________________________________
sequential_2 (Sequential)       (None, 128, 128, 64) 3072        input_1[0][0]                    
__________________________________________________________________________________________________
sequential_3 (Sequential)       (None, 64, 64, 128)  131584      sequential_2[0][0]               
__________________________________________________________________________________________________
sequential_4 (Sequential)       (None, 32, 32, 256)  525312      sequential_3[0][0]               
__________________________________________________________________________________________________
sequential_5 (Sequential)       (None, 16, 16, 512)  2099200     sequential_4[0][0]               
__________________________________________________________________________________________________
sequential_6 (Sequential)       (None, 8, 8, 512)    4196352     sequential_5[0][0]               
__________________________________________________________________________________________________
sequential_7 (Sequential)       (None, 4, 4, 512)    4196352     sequential_6[0][0]               
__________________________________________________________________________________________________
sequential_8 (Sequential)       (None, 2, 2, 512)    4196352     sequential_7[0][0]               
__________________________________________________________________________________________________
sequential_9 (Sequential)       (None, 1, 1, 512)    4196352     sequential_8[0][0]               
__________________________________________________________________________________________________
sequential_10 (Sequential)      (None, 2, 2, 512)    4196352     sequential_9[0][0]               
__________________________________________________________________________________________________
concatenate (Concatenate)       (None, 2, 2, 1024)   0           sequential_10[0][0]              
                                                                 sequential_8[0][0]               
__________________________________________________________________________________________________
sequential_11 (Sequential)      (None, 4, 4, 512)    8390656     concatenate[0][0]                
__________________________________________________________________________________________________
concatenate_1 (Concatenate)     (None, 4, 4, 1024)   0           sequential_11[0][0]              
                                                                 sequential_7[0][0]               
__________________________________________________________________________________________________
sequential_12 (Sequential)      (None, 8, 8, 512)    8390656     concatenate_1[0][0]              
__________________________________________________________________________________________________
concatenate_2 (Concatenate)     (None, 8, 8, 1024)   0           sequential_12[0][0]              
                                                                 sequential_6[0][0]               
__________________________________________________________________________________________________
sequential_13 (Sequential)      (None, 16, 16, 512)  8390656     concatenate_2[0][0]              
__________________________________________________________________________________________________
concatenate_3 (Concatenate)     (None, 16, 16, 1024) 0           sequential_13[0][0]              
                                                                 sequential_5[0][0]               
__________________________________________________________________________________________________
sequential_14 (Sequential)      (None, 32, 32, 256)  4195328     concatenate_3[0][0]              
__________________________________________________________________________________________________
concatenate_4 (Concatenate)     (None, 32, 32, 512)  0           sequential_14[0][0]              
                                                                 sequential_4[0][0]               
__________________________________________________________________________________________________
sequential_15 (Sequential)      (None, 64, 64, 128)  1049088     concatenate_4[0][0]              
__________________________________________________________________________________________________
concatenate_5 (Concatenate)     (None, 64, 64, 256)  0           sequential_15[0][0]              
                                                                 sequential_3[0][0]               
__________________________________________________________________________________________________
sequential_16 (Sequential)      (None, 128, 128, 64) 262400      concatenate_5[0][0]              
__________________________________________________________________________________________________
concatenate_6 (Concatenate)     (None, 128, 128, 128 0           sequential_16[0][0]              
                                                                 sequential_2[0][0]               
__________________________________________________________________________________________________
conv2d_transpose_8 (Conv2DTrans (None, 256, 256, 3)  6147        concatenate_6[0][0]              
==================================================================================================
Total params: 54,425,859
Trainable params: 54,414,979
Non-trainable params: 10,880
__________________________________________________________________________________________________
Model: "model_1"
__________________________________________________________________________________________________
Layer (type)                    Output Shape         Param #     Connected to                     
==================================================================================================
input_image (InputLayer)        [(None, 256, 256, 3) 0                                            
__________________________________________________________________________________________________
target_image (InputLayer)       [(None, 256, 256, 3) 0                                            
__________________________________________________________________________________________________
concatenate_7 (Concatenate)     (None, 256, 256, 6)  0           input_image[0][0]                
                                                                 target_image[0][0]               
__________________________________________________________________________________________________
sequential_17 (Sequential)      (None, 128, 128, 64) 6144        concatenate_7[0][0]              
__________________________________________________________________________________________________
sequential_18 (Sequential)      (None, 64, 64, 128)  131584      sequential_17[0][0]              
__________________________________________________________________________________________________
sequential_19 (Sequential)      (None, 32, 32, 256)  525312      sequential_18[0][0]              
__________________________________________________________________________________________________
zero_padding2d (ZeroPadding2D)  (None, 34, 34, 256)  0           sequential_19[0][0]              
__________________________________________________________________________________________________
conv2d_12 (Conv2D)              (None, 31, 31, 512)  2097152     zero_padding2d[0][0]             
__________________________________________________________________________________________________
batch_normalization_18 (BatchNo (None, 31, 31, 512)  2048        conv2d_12[0][0]                  
__________________________________________________________________________________________________
leaky_re_lu_12 (LeakyReLU)      (None, 31, 31, 512)  0           batch_normalization_18[0][0]     
__________________________________________________________________________________________________
zero_padding2d_1 (ZeroPadding2D (None, 33, 33, 512)  0           leaky_re_lu_12[0][0]             
__________________________________________________________________________________________________
conv2d_13 (Conv2D)              (None, 30, 30, 1)    8193        zero_padding2d_1[0][0]           
==================================================================================================
Total params: 2,770,433
Trainable params: 2,768,641
Non-trainable params: 1,792
__________________________________________________________________________________________________
Model: "model_2"
__________________________________________________________________________________________________
Layer (type)                    Output Shape         Param #     Connected to                     
==================================================================================================
input_image (InputLayer)        [(None, 256, 256, 3) 0                                            
__________________________________________________________________________________________________
target_image (InputLayer)       [(None, 256, 256, 3) 0                                            
__________________________________________________________________________________________________
concatenate_8 (Concatenate)     (None, 256, 256, 6)  0           input_image[0][0]                
                                                                 target_image[0][0]               
__________________________________________________________________________________________________
sequential_20 (Sequential)      (None, 128, 128, 64) 6144        concatenate_8[0][0]              
__________________________________________________________________________________________________
sequential_21 (Sequential)      (None, 64, 64, 128)  131584      sequential_20[0][0]              
__________________________________________________________________________________________________
sequential_22 (Sequential)      (None, 32, 32, 256)  525312      sequential_21[0][0]              
__________________________________________________________________________________________________
zero_padding2d_2 (ZeroPadding2D (None, 34, 34, 256)  0           sequential_22[0][0]              
__________________________________________________________________________________________________
conv2d_17 (Conv2D)              (None, 31, 31, 512)  2097152     zero_padding2d_2[0][0]           
__________________________________________________________________________________________________
batch_normalization_21 (BatchNo (None, 31, 31, 512)  2048        conv2d_17[0][0]                  
__________________________________________________________________________________________________
leaky_re_lu_16 (LeakyReLU)      (None, 31, 31, 512)  0           batch_normalization_21[0][0]     
__________________________________________________________________________________________________
zero_padding2d_3 (ZeroPadding2D (None, 33, 33, 512)  0           leaky_re_lu_16[0][0]             
__________________________________________________________________________________________________
conv2d_18 (Conv2D)              (None, 30, 30, 1)    8193        zero_padding2d_3[0][0]           
==================================================================================================
Total params: 2,770,433
Trainable params: 2,768,641
Non-trainable params: 1,792
__________________________________________________________________________________________________
Model: "model_3"
__________________________________________________________________________________________________
Layer (type)                    Output Shape         Param #     Connected to                     
==================================================================================================
input_image (InputLayer)        [(None, 256, 256, 3) 0                                            
__________________________________________________________________________________________________
target_image (InputLayer)       [(None, 256, 256, 3) 0                                            
__________________________________________________________________________________________________
concatenate_9 (Concatenate)     (None, 256, 256, 6)  0           input_image[0][0]                
                                                                 target_image[0][0]               
__________________________________________________________________________________________________
sequential_23 (Sequential)      (None, 128, 128, 64) 6144        concatenate_9[0][0]              
__________________________________________________________________________________________________
sequential_24 (Sequential)      (None, 64, 64, 128)  131584      sequential_23[0][0]              
__________________________________________________________________________________________________
sequential_25 (Sequential)      (None, 32, 32, 256)  525312      sequential_24[0][0]              
__________________________________________________________________________________________________
zero_padding2d_4 (ZeroPadding2D (None, 34, 34, 256)  0           sequential_25[0][0]              
__________________________________________________________________________________________________
conv2d_22 (Conv2D)              (None, 31, 31, 512)  2097152     zero_padding2d_4[0][0]           
__________________________________________________________________________________________________
batch_normalization_24 (BatchNo (None, 31, 31, 512)  2048        conv2d_22[0][0]                  
__________________________________________________________________________________________________
leaky_re_lu_20 (LeakyReLU)      (None, 31, 31, 512)  0           batch_normalization_24[0][0]     
__________________________________________________________________________________________________
zero_padding2d_5 (ZeroPadding2D (None, 33, 33, 512)  0           leaky_re_lu_20[0][0]             
__________________________________________________________________________________________________
conv2d_23 (Conv2D)              (None, 30, 30, 1)    8193        zero_padding2d_5[0][0]           
==================================================================================================
Total params: 2,770,433
Trainable params: 2,768,641
Non-trainable params: 1,792
__________________________________________________________________________________________________
Model: "model_4"
__________________________________________________________________________________________________
Layer (type)                    Output Shape         Param #     Connected to                     
==================================================================================================
input_image (InputLayer)        [(None, 256, 256, 3) 0                                            
__________________________________________________________________________________________________
target_image (InputLayer)       [(None, 256, 256, 3) 0                                            
__________________________________________________________________________________________________
concatenate_10 (Concatenate)    (None, 256, 256, 6)  0           input_image[0][0]                
                                                                 target_image[0][0]               
__________________________________________________________________________________________________
sequential_26 (Sequential)      (None, 128, 128, 64) 6144        concatenate_10[0][0]             
__________________________________________________________________________________________________
sequential_27 (Sequential)      (None, 64, 64, 128)  131584      sequential_26[0][0]              
__________________________________________________________________________________________________
sequential_28 (Sequential)      (None, 32, 32, 256)  525312      sequential_27[0][0]              
__________________________________________________________________________________________________
zero_padding2d_6 (ZeroPadding2D (None, 34, 34, 256)  0           sequential_28[0][0]              
__________________________________________________________________________________________________
conv2d_27 (Conv2D)              (None, 31, 31, 512)  2097152     zero_padding2d_6[0][0]           
__________________________________________________________________________________________________
batch_normalization_27 (BatchNo (None, 31, 31, 512)  2048        conv2d_27[0][0]                  
__________________________________________________________________________________________________
leaky_re_lu_24 (LeakyReLU)      (None, 31, 31, 512)  0           batch_normalization_27[0][0]     
__________________________________________________________________________________________________
zero_padding2d_7 (ZeroPadding2D (None, 33, 33, 512)  0           leaky_re_lu_24[0][0]             
__________________________________________________________________________________________________
conv2d_28 (Conv2D)              (None, 30, 30, 1)    8193        zero_padding2d_7[0][0]           
==================================================================================================
Total params: 2,770,433
Trainable params: 2,768,641
Non-trainable params: 1,792
__________________________________________________________________________________________________
Model: "model"
__________________________________________________________________________________________________
…
==================================================================================================
Total params: 54,425,859
Trainable params: 54,414,979
Non-trainable params: 10,880
__________________________________________________________________________________________________
Model: "model"
__________________________________________________________________________________________________
Layer (type)                    Output Shape         Param #     Connected to                     
==================================================================================================
input_1 (InputLayer)            [(None, 256, 256, 3) 0                                            
__________________________________________________________________________________________________
sequential_2 (Sequential)       (None, 128, 128, 64) 3072        input_1[0][0]                    
__________________________________________________________________________________________________
sequential_3 (Sequential)       (None, 64, 64, 128)  131584      sequential_2[0][0]               
__________________________________________________________________________________________________
sequential_4 (Sequential)       (None, 32, 32, 256)  525312      sequential_3[0][0]               
__________________________________________________________________________________________________
sequential_5 (Sequential)       (None, 16, 16, 512)  2099200     sequential_4[0][0]               
__________________________________________________________________________________________________
sequential_6 (Sequential)       (None, 8, 8, 512)    4196352     sequential_5[0][0]               
__________________________________________________________________________________________________
sequential_7 (Sequential)       (None, 4, 4, 512)    4196352     sequential_6[0][0]               
__________________________________________________________________________________________________
sequential_8 (Sequential)       (None, 2, 2, 512)    4196352     sequential_7[0][0]               
__________________________________________________________________________________________________
sequential_9 (Sequential)       (None, 1, 1, 512)    4196352     sequential_8[0][0]               
__________________________________________________________________________________________________
sequential_10 (Sequential)      (None, 2, 2, 512)    4196352     sequential_9[0][0]               
__________________________________________________________________________________________________
concatenate (Concatenate)       (None, 2, 2, 1024)   0           sequential_10[0][0]              
                                                                 sequential_8[0][0]               
__________________________________________________________________________________________________
sequential_11 (Sequential)      (None, 4, 4, 512)    8390656     concatenate[0][0]                
__________________________________________________________________________________________________
concatenate_1 (Concatenate)     (None, 4, 4, 1024)   0           sequential_11[0][0]              
                                                                 sequential_7[0][0]               
__________________________________________________________________________________________________
sequential_12 (Sequential)      (None, 8, 8, 512)    8390656     concatenate_1[0][0]              
__________________________________________________________________________________________________
concatenate_2 (Concatenate)     (None, 8, 8, 1024)   0           sequential_12[0][0]              
                                                                 sequential_6[0][0]               
__________________________________________________________________________________________________
sequential_13 (Sequential)      (None, 16, 16, 512)  8390656     concatenate_2[0][0]              
__________________________________________________________________________________________________
concatenate_3 (Concatenate)     (None, 16, 16, 1024) 0           sequential_13[0][0]              
                                                                 sequential_5[0][0]               
__________________________________________________________________________________________________
sequential_14 (Sequential)      (None, 32, 32, 256)  4195328     concatenate_3[0][0]              
__________________________________________________________________________________________________
concatenate_4 (Concatenate)     (None, 32, 32, 512)  0           sequential_14[0][0]              
                                                                 sequential_4[0][0]               
__________________________________________________________________________________________________
sequential_15 (Sequential)      (None, 64, 64, 128)  1049088     concatenate_4[0][0]              
__________________________________________________________________________________________________
concatenate_5 (Concatenate)     (None, 64, 64, 256)  0           sequential_15[0][0]              
                                                                 sequential_3[0][0]               
__________________________________________________________________________________________________
sequential_16 (Sequential)      (None, 128, 128, 64) 262400      concatenate_5[0][0]              
__________________________________________________________________________________________________
concatenate_6 (Concatenate)     (None, 128, 128, 128 0           sequential_16[0][0]              
                                                                 sequential_2[0][0]               
__________________________________________________________________________________________________
conv2d_transpose_8 (Conv2DTrans (None, 256, 256, 3)  6147        concatenate_6[0][0]              
==================================================================================================
Total params: 54,425,859
Trainable params: 54,414,979
Non-trainable params: 10,880
__________________________________________________________________________________________________
Model: "model"
__________________________________________________________________________________________________
…
==================================================================================================
Total params: 54,425,859
Trainable params: 54,414,979
Non-trainable params: 10,880
__________________________________________________________________________________________________
Model: "model"
__________________________________________________________________________________________________
Layer (type)                    Output Shape         Param #     Connected to                     
==================================================================================================
input_1 (InputLayer)            [(None, 256, 256, 3) 0                                            
__________________________________________________________________________________________________
sequential_2 (Sequential)       (None, 128, 128, 64) 3072        input_1[0][0]                    
__________________________________________________________________________________________________
sequential_3 (Sequential)       (None, 64, 64, 128)  131584      sequential_2[0][0]               
__________________________________________________________________________________________________
sequential_4 (Sequential)       (None, 32, 32, 256)  525312      sequential_3[0][0]               
__________________________________________________________________________________________________
sequential_5 (Sequential)       (None, 16, 16, 512)  2099200     sequential_4[0][0]               
__________________________________________________________________________________________________
sequential_6 (Sequential)       (None, 8, 8, 512)    4196352     sequential_5[0][0]               
__________________________________________________________________________________________________
sequential_7 (Sequential)       (None, 4, 4, 512)    4196352     sequential_6[0][0]               
__________________________________________________________________________________________________
sequential_8 (Sequential)       (None, 2, 2, 512)    4196352     sequential_7[0][0]               
__________________________________________________________________________________________________
sequential_9 (Sequential)       (None, 1, 1, 512)    4196352     sequential_8[0][0]               
__________________________________________________________________________________________________
sequential_10 (Sequential)      (None, 2, 2, 512)    4196352     sequential_9[0][0]               
__________________________________________________________________________________________________
concatenate (Concatenate)       (None, 2, 2, 1024)   0           sequential_10[0][0]              
                                                                 sequential_8[0][0]               
__________________________________________________________________________________________________
sequential_11 (Sequential)      (None, 4, 4, 512)    8390656     concatenate[0][0]                
__________________________________________________________________________________________________
concatenate_1 (Concatenate)     (None, 4, 4, 1024)   0           sequential_11[0][0]              
                                                                 sequential_7[0][0]               
__________________________________________________________________________________________________
sequential_12 (Sequential)      (None, 8, 8, 512)    8390656     concatenate_1[0][0]              
__________________________________________________________________________________________________
concatenate_2 (Concatenate)     (None, 8, 8, 1024)   0           sequential_12[0][0]              
                                                                 sequential_6[0][0]               
__________________________________________________________________________________________________
sequential_13 (Sequential)      (None, 16, 16, 512)  8390656     concatenate_2[0][0]              
__________________________________________________________________________________________________
concatenate_3 (Concatenate)     (None, 16, 16, 1024) 0           sequential_13[0][0]              
                                                                 sequential_5[0][0]               
__________________________________________________________________________________________________
sequential_14 (Sequential)      (None, 32, 32, 256)  4195328     concatenate_3[0][0]              
__________________________________________________________________________________________________
concatenate_4 (Concatenate)     (None, 32, 32, 512)  0           sequential_14[0][0]              
                                                                 sequential_4[0][0]               
__________________________________________________________________________________________________
sequential_15 (Sequential)      (None, 64, 64, 128)  1049088     concatenate_4[0][0]              
__________________________________________________________________________________________________
concatenate_5 (Concatenate)     (None, 64, 64, 256)  0           sequential_15[0][0]              
                                                                 sequential_3[0][0]               
__________________________________________________________________________________________________
sequential_16 (Sequential)      (None, 128, 128, 64) 262400      concatenate_5[0][0]              
__________________________________________________________________________________________________
concatenate_6 (Concatenate)     (None, 128, 128, 128 0           sequential_16[0][0]              
                                                                 sequential_2[0][0]               
__________________________________________________________________________________________________
conv2d_transpose_8 (Conv2DTrans (None, 256, 256, 3)  6147        concatenate_6[0][0]              
==================================================================================================
Total params: 54,425,859
Trainable params: 54,414,979
Non-trainable params: 10,880
__________________________________________________________________________________________________
Model: "model_1"
__________________________________________________________________________________________________
Layer (type)                    Output Shape         Param #     Connected to                     
==================================================================================================
input_image (InputLayer)        [(None, 256, 256, 3) 0                                            
__________________________________________________________________________________________________
target_image (InputLayer)       [(None, 256, 256, 3) 0                                            
__________________________________________________________________________________________________
concatenate_7 (Concatenate)     (None, 256, 256, 6)  0           input_image[0][0]                
                                                                 target_image[0][0]               
__________________________________________________________________________________________________
sequential_17 (Sequential)      (None, 128, 128, 64) 6144        concatenate_7[0][0]              
__________________________________________________________________________________________________
sequential_18 (Sequential)      (None, 64, 64, 128)  131584      sequential_17[0][0]              
__________________________________________________________________________________________________
sequential_19 (Sequential)      (None, 32, 32, 256)  525312      sequential_18[0][0]              
__________________________________________________________________________________________________
zero_padding2d (ZeroPadding2D)  (None, 34, 34, 256)  0           sequential_19[0][0]              
__________________________________________________________________________________________________
conv2d_12 (Conv2D)              (None, 31, 31, 512)  2097152     zero_padding2d[0][0]             
__________________________________________________________________________________________________
batch_normalization_18 (BatchNo (None, 31, 31, 512)  2048        conv2d_12[0][0]                  
__________________________________________________________________________________________________
leaky_re_lu_12 (LeakyReLU)      (None, 31, 31, 512)  0           batch_normalization_18[0][0]     
__________________________________________________________________________________________________
zero_padding2d_1 (ZeroPadding2D (None, 33, 33, 512)  0           leaky_re_lu_12[0][0]             
__________________________________________________________________________________________________
conv2d_13 (Conv2D)              (None, 30, 30, 1)    8193        zero_padding2d_1[0][0]           
==================================================================================================
Total params: 2,770,433
Trainable params: 2,768,641
Non-trainable params: 1,792
__________________________________________________________________________________________________
Model: "model_2"
__________________________________________________________________________________________________
Layer (type)                    Output Shape         Param #     Connected to                     
==================================================================================================
input_image (InputLayer)        [(None, 256, 256, 3) 0                                            
__________________________________________________________________________________________________
target_image (InputLayer)       [(None, 256, 256, 3) 0                                            
__________________________________________________________________________________________________
concatenate_8 (Concatenate)     (None, 256, 256, 6)  0           input_image[0][0]                
                                                                 target_image[0][0]               
__________________________________________________________________________________________________
sequential_20 (Sequential)      (None, 128, 128, 64) 6144        concatenate_8[0][0]              
__________________________________________________________________________________________________
sequential_21 (Sequential)      (None, 64, 64, 128)  131584      sequential_20[0][0]              
__________________________________________________________________________________________________
sequential_22 (Sequential)      (None, 32, 32, 256)  525312      sequential_21[0][0]              
__________________________________________________________________________________________________
zero_padding2d_2 (ZeroPadding2D (None, 34, 34, 256)  0           sequential_22[0][0]              
__________________________________________________________________________________________________
conv2d_17 (Conv2D)              (None, 31, 31, 512)  2097152     zero_padding2d_2[0][0]           
__________________________________________________________________________________________________
batch_normalization_21 (BatchNo (None, 31, 31, 512)  2048        conv2d_17[0][0]                  
__________________________________________________________________________________________________
leaky_re_lu_16 (LeakyReLU)      (None, 31, 31, 512)  0           batch_normalization_21[0][0]     
__________________________________________________________________________________________________
zero_padding2d_3 (ZeroPadding2D (None, 33, 33, 512)  0           leaky_re_lu_16[0][0]             
__________________________________________________________________________________________________
conv2d_18 (Conv2D)              (None, 30, 30, 1)    8193        zero_padding2d_3[0][0]           
==================================================================================================
Total params: 2,770,433
Trainable params: 2,768,641
Non-trainable params: 1,792
__________________________________________________________________________________________________
Model: "model_3"
__________________________________________________________________________________________________
Layer (type)                    Output Shape         Param #     Connected to                     
==================================================================================================
input_image (InputLayer)        [(None, 256, 256, 3) 0                                            
__________________________________________________________________________________________________
target_image (InputLayer)       [(None, 256, 256, 3) 0                                            
__________________________________________________________________________________________________
concatenate_9 (Concatenate)     (None, 256, 256, 6)  0           input_image[0][0]                
                                                                 target_image[0][0]               
__________________________________________________________________________________________________
sequential_23 (Sequential)      (None, 128, 128, 64) 6144        concatenate_9[0][0]              
__________________________________________________________________________________________________
sequential_24 (Sequential)      (None, 64, 64, 128)  131584      sequential_23[0][0]              
__________________________________________________________________________________________________
sequential_25 (Sequential)      (None, 32, 32, 256)  525312      sequential_24[0][0]              
__________________________________________________________________________________________________
zero_padding2d_4 (ZeroPadding2D (None, 34, 34, 256)  0           sequential_25[0][0]              
__________________________________________________________________________________________________
conv2d_22 (Conv2D)              (None, 31, 31, 512)  2097152     zero_padding2d_4[0][0]           
__________________________________________________________________________________________________
batch_normalization_24 (BatchNo (None, 31, 31, 512)  2048        conv2d_22[0][0]                  
__________________________________________________________________________________________________
leaky_re_lu_20 (LeakyReLU)      (None, 31, 31, 512)  0           batch_normalization_24[0][0]     
__________________________________________________________________________________________________
zero_padding2d_5 (ZeroPadding2D (None, 33, 33, 512)  0           leaky_re_lu_20[0][0]             
__________________________________________________________________________________________________
conv2d_23 (Conv2D)              (None, 30, 30, 1)    8193        zero_padding2d_5[0][0]           
==================================================================================================
Total params: 2,770,433
Trainable params: 2,768,641
Non-trainable params: 1,792
__________________________________________________________________________________________________
Model: "model"
__________________________________________________________________________________________________
…
==================================================================================================
Total params: 54,426,115
Trainable params: 54,415,107
Non-trainable params: 11,008
__________________________________________________________________________________________________
Model: "model"
__________________________________________________________________________________________________
Layer (type)                    Output Shape         Param #     Connected to                     
==================================================================================================
input_1 (InputLayer)            [(None, 256, 256, 3) 0                                            
__________________________________________________________________________________________________
sequential_2 (Sequential)       (None, 128, 128, 64) 3328        input_1[0][0]                    
__________________________________________________________________________________________________
sequential_3 (Sequential)       (None, 64, 64, 128)  131584      sequential_2[0][0]               
__________________________________________________________________________________________________
sequential_4 (Sequential)       (None, 32, 32, 256)  525312      sequential_3[0][0]               
__________________________________________________________________________________________________
sequential_5 (Sequential)       (None, 16, 16, 512)  2099200     sequential_4[0][0]               
__________________________________________________________________________________________________
sequential_6 (Sequential)       (None, 8, 8, 512)    4196352     sequential_5[0][0]               
__________________________________________________________________________________________________
sequential_7 (Sequential)       (None, 4, 4, 512)    4196352     sequential_6[0][0]               
__________________________________________________________________________________________________
sequential_8 (Sequential)       (None, 2, 2, 512)    4196352     sequential_7[0][0]               
__________________________________________________________________________________________________
sequential_9 (Sequential)       (None, 1, 1, 512)    4196352     sequential_8[0][0]               
__________________________________________________________________________________________________
sequential_10 (Sequential)      (None, 2, 2, 512)    4196352     sequential_9[0][0]               
__________________________________________________________________________________________________
concatenate (Concatenate)       (None, 2, 2, 1024)   0           sequential_10[0][0]              
                                                                 sequential_8[0][0]               
__________________________________________________________________________________________________
sequential_11 (Sequential)      (None, 4, 4, 512)    8390656     concatenate[0][0]                
__________________________________________________________________________________________________
concatenate_1 (Concatenate)     (None, 4, 4, 1024)   0           sequential_11[0][0]              
                                                                 sequential_7[0][0]               
__________________________________________________________________________________________________
sequential_12 (Sequential)      (None, 8, 8, 512)    8390656     concatenate_1[0][0]              
__________________________________________________________________________________________________
concatenate_2 (Concatenate)     (None, 8, 8, 1024)   0           sequential_12[0][0]              
                                                                 sequential_6[0][0]               
__________________________________________________________________________________________________
sequential_13 (Sequential)      (None, 16, 16, 512)  8390656     concatenate_2[0][0]              
__________________________________________________________________________________________________
concatenate_3 (Concatenate)     (None, 16, 16, 1024) 0           sequential_13[0][0]              
                                                                 sequential_5[0][0]               
__________________________________________________________________________________________________
sequential_14 (Sequential)      (None, 32, 32, 256)  4195328     concatenate_3[0][0]              
__________________________________________________________________________________________________
concatenate_4 (Concatenate)     (None, 32, 32, 512)  0           sequential_14[0][0]              
                                                                 sequential_4[0][0]               
__________________________________________________________________________________________________
sequential_15 (Sequential)      (None, 64, 64, 128)  1049088     concatenate_4[0][0]              
__________________________________________________________________________________________________
concatenate_5 (Concatenate)     (None, 64, 64, 256)  0           sequential_15[0][0]              
                                                                 sequential_3[0][0]               
__________________________________________________________________________________________________
sequential_16 (Sequential)      (None, 128, 128, 64) 262400      concatenate_5[0][0]              
__________________________________________________________________________________________________
concatenate_6 (Concatenate)     (None, 128, 128, 128 0           sequential_16[0][0]              
                                                                 sequential_2[0][0]               
__________________________________________________________________________________________________
conv2d_transpose_8 (Conv2DTrans (None, 256, 256, 3)  6147        concatenate_6[0][0]              
==================================================================================================
Total params: 54,426,115
Trainable params: 54,415,107
Non-trainable params: 11,008
__________________________________________________________________________________________________
Model: "model_1"
__________________________________________________________________________________________________
Layer (type)                    Output Shape         Param #     Connected to                     
==================================================================================================
input_image (InputLayer)        [(None, 256, 256, 3) 0                                            
__________________________________________________________________________________________________
target_image (InputLayer)       [(None, 256, 256, 3) 0                                            
__________________________________________________________________________________________________
concatenate_7 (Concatenate)     (None, 256, 256, 6)  0           input_image[0][0]                
                                                                 target_image[0][0]               
__________________________________________________________________________________________________
sequential_17 (Sequential)      (None, 128, 128, 64) 6144        concatenate_7[0][0]              
__________________________________________________________________________________________________
sequential_18 (Sequential)      (None, 64, 64, 128)  131584      sequential_17[0][0]              
__________________________________________________________________________________________________
sequential_19 (Sequential)      (None, 32, 32, 256)  525312      sequential_18[0][0]              
__________________________________________________________________________________________________
zero_padding2d (ZeroPadding2D)  (None, 34, 34, 256)  0           sequential_19[0][0]              
__________________________________________________________________________________________________
conv2d_12 (Conv2D)              (None, 31, 31, 512)  2097152     zero_padding2d[0][0]             
__________________________________________________________________________________________________
batch_normalization_19 (BatchNo (None, 31, 31, 512)  2048        conv2d_12[0][0]                  
__________________________________________________________________________________________________
leaky_re_lu_12 (LeakyReLU)      (None, 31, 31, 512)  0           batch_normalization_19[0][0]     
__________________________________________________________________________________________________
zero_padding2d_1 (ZeroPadding2D (None, 33, 33, 512)  0           leaky_re_lu_12[0][0]             
__________________________________________________________________________________________________
conv2d_13 (Conv2D)              (None, 30, 30, 1)    8193        zero_padding2d_1[0][0]           
==================================================================================================
Total params: 2,770,433
Trainable params: 2,768,641
Non-trainable params: 1,792
__________________________________________________________________________________________________
Model: "model"
__________________________________________________________________________________________________
…
==================================================================================================
Total params: 60,729,859
Trainable params: 60,712,707
Non-trainable params: 17,152
__________________________________________________________________________________________________
Model: "model_1"
__________________________________________________________________________________________________
Layer (type)                    Output Shape         Param #     Connected to                     
==================================================================================================
input_5 (InputLayer)            [(None, 256, 256, 3) 0                                            
__________________________________________________________________________________________________
sequential_51 (Sequential)      (None, 128, 128, 64) 3328        input_5[0][0]                    
__________________________________________________________________________________________________
sequential_52 (Sequential)      (None, 64, 64, 128)  131584      sequential_51[0][0]              
__________________________________________________________________________________________________
sequential_53 (Sequential)      (None, 32, 32, 256)  525312      sequential_52[0][0]              
__________________________________________________________________________________________________
sequential_54 (Sequential)      (None, 16, 16, 512)  2099200     sequential_53[0][0]              
__________________________________________________________________________________________________
sequential_55 (Sequential)      (None, 8, 8, 512)    4196352     sequential_54[0][0]              
__________________________________________________________________________________________________
sequential_56 (Sequential)      (None, 4, 4, 512)    4196352     sequential_55[0][0]              
__________________________________________________________________________________________________
sequential_57 (Sequential)      (None, 2, 2, 512)    4196352     sequential_56[0][0]              
__________________________________________________________________________________________________
sequential_58 (Sequential)      (None, 1, 1, 512)    4196352     sequential_57[0][0]              
__________________________________________________________________________________________________
sequential_59 (Sequential)      (None, 1, 1, 512)    264192      sequential_58[0][0]              
__________________________________________________________________________________________________
sequential_60 (Sequential)      (None, 1, 1, 512)    264192      sequential_59[0][0]              
__________________________________________________________________________________________________
sequential_61 (Sequential)      (None, 1, 1, 512)    264192      sequential_60[0][0]              
__________________________________________________________________________________________________
sequential_62 (Sequential)      (None, 1, 1, 512)    264192      sequential_61[0][0]              
__________________________________________________________________________________________________
concatenate_10 (Concatenate)    (None, 1, 1, 1024)   0           sequential_62[0][0]              
                                                                 sequential_60[0][0]              
__________________________________________________________________________________________________
sequential_63 (Sequential)      (None, 1, 1, 512)    526336      concatenate_10[0][0]             
__________________________________________________________________________________________________
concatenate_11 (Concatenate)    (None, 1, 1, 1024)   0           sequential_63[0][0]              
                                                                 sequential_59[0][0]              
__________________________________________________________________________________________________
sequential_64 (Sequential)      (None, 1, 1, 512)    526336      concatenate_11[0][0]             
__________________________________________________________________________________________________
concatenate_12 (Concatenate)    (None, 1, 1, 1024)   0           sequential_64[0][0]              
                                                                 sequential_58[0][0]              
__________________________________________________________________________________________________
sequential_65 (Sequential)      (None, 2, 2, 512)    8390656     concatenate_12[0][0]             
__________________________________________________________________________________________________
concatenate_13 (Concatenate)    (None, 2, 2, 1024)   0           sequential_65[0][0]              
                                                                 sequential_57[0][0]              
__________________________________________________________________________________________________
sequential_66 (Sequential)      (None, 4, 4, 512)    8390656     concatenate_13[0][0]             
__________________________________________________________________________________________________
concatenate_14 (Concatenate)    (None, 4, 4, 1024)   0           sequential_66[0][0]              
                                                                 sequential_56[0][0]              
__________________________________________________________________________________________________
sequential_67 (Sequential)      (None, 8, 8, 512)    8390656     concatenate_14[0][0]             
__________________________________________________________________________________________________
concatenate_15 (Concatenate)    (None, 8, 8, 1024)   0           sequential_67[0][0]              
                                                                 sequential_55[0][0]              
__________________________________________________________________________________________________
sequential_68 (Sequential)      (None, 16, 16, 512)  8390656     concatenate_15[0][0]             
__________________________________________________________________________________________________
concatenate_16 (Concatenate)    (None, 16, 16, 1024) 0           sequential_68[0][0]              
                                                                 sequential_54[0][0]              
__________________________________________________________________________________________________
sequential_69 (Sequential)      (None, 32, 32, 256)  4195328     concatenate_16[0][0]             
__________________________________________________________________________________________________
concatenate_17 (Concatenate)    (None, 32, 32, 512)  0           sequential_69[0][0]              
                                                                 sequential_53[0][0]              
__________________________________________________________________________________________________
sequential_70 (Sequential)      (None, 64, 64, 128)  1049088     concatenate_17[0][0]             
__________________________________________________________________________________________________
concatenate_18 (Concatenate)    (None, 64, 64, 256)  0           sequential_70[0][0]              
                                                                 sequential_52[0][0]              
__________________________________________________________________________________________________
sequential_71 (Sequential)      (None, 128, 128, 64) 262400      concatenate_18[0][0]             
__________________________________________________________________________________________________
concatenate_19 (Concatenate)    (None, 128, 128, 128 0           sequential_71[0][0]              
                                                                 sequential_51[0][0]              
__________________________________________________________________________________________________
conv2d_transpose_24 (Conv2DTran (None, 256, 256, 3)  6147        concatenate_19[0][0]             
==================================================================================================
Total params: 60,729,859
Trainable params: 60,712,707
Non-trainable params: 17,152
__________________________________________________________________________________________________
Model: "model_2"
__________________________________________________________________________________________________
Layer (type)                    Output Shape         Param #     Connected to                     
==================================================================================================
input_image (InputLayer)        [(None, 256, 256, 3) 0                                            
__________________________________________________________________________________________________
target_image (InputLayer)       [(None, 256, 256, 3) 0                                            
__________________________________________________________________________________________________
concatenate_20 (Concatenate)    (None, 256, 256, 6)  0           input_image[0][0]                
                                                                 target_image[0][0]               
__________________________________________________________________________________________________
sequential_72 (Sequential)      (None, 128, 128, 64) 6144        concatenate_20[0][0]             
__________________________________________________________________________________________________
sequential_73 (Sequential)      (None, 64, 64, 128)  131584      sequential_72[0][0]              
__________________________________________________________________________________________________
sequential_74 (Sequential)      (None, 32, 32, 256)  525312      sequential_73[0][0]              
__________________________________________________________________________________________________
zero_padding2d (ZeroPadding2D)  (None, 34, 34, 256)  0           sequential_74[0][0]              
__________________________________________________________________________________________________
conv2d_52 (Conv2D)              (None, 31, 31, 512)  2097152     zero_padding2d[0][0]             
__________________________________________________________________________________________________
batch_normalization_71 (BatchNo (None, 31, 31, 512)  2048        conv2d_52[0][0]                  
__________________________________________________________________________________________________
leaky_re_lu_52 (LeakyReLU)      (None, 31, 31, 512)  0           batch_normalization_71[0][0]     
__________________________________________________________________________________________________
zero_padding2d_1 (ZeroPadding2D (None, 33, 33, 512)  0           leaky_re_lu_52[0][0]             
__________________________________________________________________________________________________
conv2d_53 (Conv2D)              (None, 30, 30, 1)    8193        zero_padding2d_1[0][0]           
==================================================================================================
Total params: 2,770,433
Trainable params: 2,768,641
Non-trainable params: 1,792
__________________________________________________________________________________________________
Model: "model"
__________________________________________________________________________________________________
…
==================================================================================================
Total params: 54,689,028
Trainable params: 54,678,020
Non-trainable params: 11,008
__________________________________________________________________________________________________
Model: "model"
__________________________________________________________________________________________________
Layer (type)                    Output Shape         Param #     Connected to                     
==================================================================================================
input_1 (InputLayer)            [(None, 256, 256, 3) 0                                            
__________________________________________________________________________________________________
sequential_2 (Sequential)       (None, 128, 128, 64) 3328        input_1[0][0]                    
__________________________________________________________________________________________________
sequential_3 (Sequential)       (None, 64, 64, 128)  131584      sequential_2[0][0]               
__________________________________________________________________________________________________
sequential_4 (Sequential)       (None, 32, 32, 256)  525312      sequential_3[0][0]               
__________________________________________________________________________________________________
sequential_5 (Sequential)       (None, 16, 16, 512)  2099200     sequential_4[0][0]               
__________________________________________________________________________________________________
sequential_6 (Sequential)       (None, 8, 8, 512)    4196352     sequential_5[0][0]               
__________________________________________________________________________________________________
sequential_7 (Sequential)       (None, 4, 4, 512)    4196352     sequential_6[0][0]               
__________________________________________________________________________________________________
sequential_8 (Sequential)       (None, 2, 2, 512)    4196352     sequential_7[0][0]               
__________________________________________________________________________________________________
sequential_9 (Sequential)       (None, 1, 1, 512)    4196352     sequential_8[0][0]               
__________________________________________________________________________________________________
conv2d_9 (Conv2D)               (None, 1, 1, 256)    131328      sequential_9[0][0]               
__________________________________________________________________________________________________
conv2d_10 (Conv2D)              (None, 1, 1, 256)    131328      sequential_9[0][0]               
__________________________________________________________________________________________________
tf.__operators__.add (TFOpLambd (None, 1, 1, 256)    0           conv2d_9[0][0]                   
                                                                 conv2d_10[0][0]                  
__________________________________________________________________________________________________
activation (Activation)         (None, 1, 1, 256)    0           tf.__operators__.add[0][0]       
__________________________________________________________________________________________________
conv2d_11 (Conv2D)              (None, 1, 1, 1)      257         activation[0][0]                 
__________________________________________________________________________________________________
activation_1 (Activation)       (None, 1, 1, 1)      0           conv2d_11[0][0]                  
__________________________________________________________________________________________________
tf.math.multiply (TFOpLambda)   (None, 1, 1, 512)    0           sequential_9[0][0]               
                                                                 activation_1[0][0]               
__________________________________________________________________________________________________
sequential_10 (Sequential)      (None, 2, 2, 512)    4196352     tf.math.multiply[0][0]           
__________________________________________________________________________________________________
concatenate (Concatenate)       (None, 2, 2, 1024)   0           sequential_10[0][0]              
                                                                 sequential_8[0][0]               
__________________________________________________________________________________________________
sequential_11 (Sequential)      (None, 4, 4, 512)    8390656     concatenate[0][0]                
__________________________________________________________________________________________________
concatenate_1 (Concatenate)     (None, 4, 4, 1024)   0           sequential_11[0][0]              
                                                                 sequential_7[0][0]               
__________________________________________________________________________________________________
sequential_12 (Sequential)      (None, 8, 8, 512)    8390656     concatenate_1[0][0]              
__________________________________________________________________________________________________
concatenate_2 (Concatenate)     (None, 8, 8, 1024)   0           sequential_12[0][0]              
                                                                 sequential_6[0][0]               
__________________________________________________________________________________________________
sequential_13 (Sequential)      (None, 16, 16, 512)  8390656     concatenate_2[0][0]              
__________________________________________________________________________________________________
concatenate_3 (Concatenate)     (None, 16, 16, 1024) 0           sequential_13[0][0]              
                                                                 sequential_5[0][0]               
__________________________________________________________________________________________________
sequential_14 (Sequential)      (None, 32, 32, 256)  4195328     concatenate_3[0][0]              
__________________________________________________________________________________________________
concatenate_4 (Concatenate)     (None, 32, 32, 512)  0           sequential_14[0][0]              
                                                                 sequential_4[0][0]               
__________________________________________________________________________________________________
sequential_15 (Sequential)      (None, 64, 64, 128)  1049088     concatenate_4[0][0]              
__________________________________________________________________________________________________
concatenate_5 (Concatenate)     (None, 64, 64, 256)  0           sequential_15[0][0]              
                                                                 sequential_3[0][0]               
__________________________________________________________________________________________________
sequential_16 (Sequential)      (None, 128, 128, 64) 262400      concatenate_5[0][0]              
__________________________________________________________________________________________________
concatenate_6 (Concatenate)     (None, 128, 128, 128 0           sequential_16[0][0]              
                                                                 sequential_2[0][0]               
__________________________________________________________________________________________________
conv2d_transpose_8 (Conv2DTrans (None, 256, 256, 3)  6147        concatenate_6[0][0]              
==================================================================================================
Total params: 54,689,028
Trainable params: 54,678,020
Non-trainable params: 11,008
__________________________________________________________________________________________________
Model: "model_1"
__________________________________________________________________________________________________
Layer (type)                    Output Shape         Param #     Connected to                     
==================================================================================================
input_image (InputLayer)        [(None, 256, 256, 3) 0                                            
__________________________________________________________________________________________________
target_image (InputLayer)       [(None, 256, 256, 3) 0                                            
__________________________________________________________________________________________________
concatenate_7 (Concatenate)     (None, 256, 256, 6)  0           input_image[0][0]                
                                                                 target_image[0][0]               
__________________________________________________________________________________________________
sequential_17 (Sequential)      (None, 128, 128, 64) 6144        concatenate_7[0][0]              
__________________________________________________________________________________________________
sequential_18 (Sequential)      (None, 64, 64, 128)  131584      sequential_17[0][0]              
__________________________________________________________________________________________________
sequential_19 (Sequential)      (None, 32, 32, 256)  525312      sequential_18[0][0]              
__________________________________________________________________________________________________
zero_padding2d (ZeroPadding2D)  (None, 34, 34, 256)  0           sequential_19[0][0]              
__________________________________________________________________________________________________
conv2d_15 (Conv2D)              (None, 31, 31, 512)  2097152     zero_padding2d[0][0]             
__________________________________________________________________________________________________
batch_normalization_19 (BatchNo (None, 31, 31, 512)  2048        conv2d_15[0][0]                  
__________________________________________________________________________________________________
leaky_re_lu_12 (LeakyReLU)      (None, 31, 31, 512)  0           batch_normalization_19[0][0]     
__________________________________________________________________________________________________
zero_padding2d_1 (ZeroPadding2D (None, 33, 33, 512)  0           leaky_re_lu_12[0][0]             
__________________________________________________________________________________________________
conv2d_16 (Conv2D)              (None, 30, 30, 1)    8193        zero_padding2d_1[0][0]           
==================================================================================================
Total params: 2,770,433
Trainable params: 2,768,641
Non-trainable params: 1,792
__________________________________________________________________________________________________
Model: "model"
__________________________________________________________________________________________________
…
==================================================================================================
Total params: 55,633,219
Trainable params: 55,622,211
Non-trainable params: 11,008
__________________________________________________________________________________________________
Model: "model"
__________________________________________________________________________________________________
Layer (type)                    Output Shape         Param #     Connected to                     
==================================================================================================
input_1 (InputLayer)            [(None, 256, 256, 3) 0                                            
__________________________________________________________________________________________________
sequential_2 (Sequential)       (None, 128, 128, 64) 3328        input_1[0][0]                    
__________________________________________________________________________________________________
sequential_3 (Sequential)       (None, 64, 64, 128)  131584      sequential_2[0][0]               
__________________________________________________________________________________________________
sequential_4 (Sequential)       (None, 32, 32, 256)  525312      sequential_3[0][0]               
__________________________________________________________________________________________________
sequential_5 (Sequential)       (None, 16, 16, 512)  2099200     sequential_4[0][0]               
__________________________________________________________________________________________________
sequential_6 (Sequential)       (None, 8, 8, 512)    4196352     sequential_5[0][0]               
__________________________________________________________________________________________________
sequential_7 (Sequential)       (None, 4, 4, 512)    4196352     sequential_6[0][0]               
__________________________________________________________________________________________________
sequential_8 (Sequential)       (None, 2, 2, 512)    4196352     sequential_7[0][0]               
__________________________________________________________________________________________________
sequential_9 (Sequential)       (None, 1, 1, 512)    4196352     sequential_8[0][0]               
__________________________________________________________________________________________________
global_average_pooling2d (Globa (None, 512)          0           sequential_9[0][0]               
__________________________________________________________________________________________________
global_max_pooling2d (GlobalMax (None, 512)          0           sequential_9[0][0]               
__________________________________________________________________________________________________
dense (Dense)                   (None, 64)           32832       global_average_pooling2d[0][0]   
                                                                 global_max_pooling2d[0][0]       
__________________________________________________________________________________________________
dense_1 (Dense)                 (None, 512)          33280       dense[0][0]                      
                                                                 dense[1][0]                      
__________________________________________________________________________________________________
add (Add)                       (None, 512)          0           dense_1[0][0]                    
                                                                 dense_1[1][0]                    
__________________________________________________________________________________________________
activation (Activation)         (None, 512)          0           add[0][0]                        
__________________________________________________________________________________________________
multiply (Multiply)             (None, 1, 1, 512)    0           sequential_9[0][0]               
                                                                 activation[0][0]                 
__________________________________________________________________________________________________
lambda (Lambda)                 (None, 1, 1, 1)      0           multiply[0][0]                   
__________________________________________________________________________________________________
lambda_1 (Lambda)               (None, 1, 1, 1)      0           multiply[0][0]                   
__________________________________________________________________________________________________
concatenate (Concatenate)       (None, 1, 1, 2)      0           lambda[0][0]                     
                                                                 lambda_1[0][0]                   
__________________________________________________________________________________________________
conv2d_9 (Conv2D)               (None, 1, 1, 1)      98          concatenate[0][0]                
__________________________________________________________________________________________________
multiply_1 (Multiply)           (None, 1, 1, 512)    0           multiply[0][0]                   
                                                                 conv2d_9[0][0]                   
__________________________________________________________________________________________________
sequential_10 (Sequential)      (None, 2, 2, 512)    4196352     multiply_1[0][0]                 
__________________________________________________________________________________________________
concatenate_1 (Concatenate)     (None, 2, 2, 1024)   0           sequential_10[0][0]              
                                                                 sequential_8[0][0]               
__________________________________________________________________________________________________
global_average_pooling2d_1 (Glo (None, 1024)         0           concatenate_1[0][0]              
__________________________________________________________________________________________________
global_max_pooling2d_1 (GlobalM (None, 1024)         0           concatenate_1[0][0]              
__________________________________________________________________________________________________
dense_2 (Dense)                 (None, 128)          131200      global_average_pooling2d_1[0][0] 
                                                                 global_max_pooling2d_1[0][0]     
__________________________________________________________________________________________________
dense_3 (Dense)                 (None, 1024)         132096      dense_2[0][0]                    
                                                                 dense_2[1][0]                    
__________________________________________________________________________________________________
add_1 (Add)                     (None, 1024)         0           dense_3[0][0]                    
                                                                 dense_3[1][0]                    
__________________________________________________________________________________________________
activation_1 (Activation)       (None, 1024)         0           add_1[0][0]                      
__________________________________________________________________________________________________
multiply_2 (Multiply)           (None, 2, 2, 1024)   0           concatenate_1[0][0]              
                                                                 activation_1[0][0]               
__________________________________________________________________________________________________
lambda_2 (Lambda)               (None, 2, 2, 1)      0           multiply_2[0][0]                 
__________________________________________________________________________________________________
lambda_3 (Lambda)               (None, 2, 2, 1)      0           multiply_2[0][0]                 
__________________________________________________________________________________________________
concatenate_2 (Concatenate)     (None, 2, 2, 2)      0           lambda_2[0][0]                   
                                                                 lambda_3[0][0]                   
__________________________________________________________________________________________________
conv2d_10 (Conv2D)              (None, 2, 2, 1)      98          concatenate_2[0][0]              
__________________________________________________________________________________________________
multiply_3 (Multiply)           (None, 2, 2, 1024)   0           multiply_2[0][0]                 
                                                                 conv2d_10[0][0]                  
__________________________________________________________________________________________________
sequential_11 (Sequential)      (None, 4, 4, 512)    8390656     multiply_3[0][0]                 
__________________________________________________________________________________________________
concatenate_3 (Concatenate)     (None, 4, 4, 1024)   0           sequential_11[0][0]              
                                                                 sequential_7[0][0]               
__________________________________________________________________________________________________
global_average_pooling2d_2 (Glo (None, 1024)         0           concatenate_3[0][0]              
__________________________________________________________________________________________________
global_max_pooling2d_2 (GlobalM (None, 1024)         0           concatenate_3[0][0]              
__________________________________________________________________________________________________
dense_4 (Dense)                 (None, 128)          131200      global_average_pooling2d_2[0][0] 
                                                                 global_max_pooling2d_2[0][0]     
__________________________________________________________________________________________________
dense_5 (Dense)                 (None, 1024)         132096      dense_4[0][0]                    
                                                                 dense_4[1][0]                    
__________________________________________________________________________________________________
add_2 (Add)                     (None, 1024)         0           dense_5[0][0]                    
                                                                 dense_5[1][0]                    
__________________________________________________________________________________________________
activation_2 (Activation)       (None, 1024)         0           add_2[0][0]                      
__________________________________________________________________________________________________
multiply_4 (Multiply)           (None, 4, 4, 1024)   0           concatenate_3[0][0]              
                                                                 activation_2[0][0]               
__________________________________________________________________________________________________
lambda_4 (Lambda)               (None, 4, 4, 1)      0           multiply_4[0][0]                 
__________________________________________________________________________________________________
lambda_5 (Lambda)               (None, 4, 4, 1)      0           multiply_4[0][0]                 
__________________________________________________________________________________________________
concatenate_4 (Concatenate)     (None, 4, 4, 2)      0           lambda_4[0][0]                   
                                                                 lambda_5[0][0]                   
__________________________________________________________________________________________________
conv2d_11 (Conv2D)              (None, 4, 4, 1)      98          concatenate_4[0][0]              
__________________________________________________________________________________________________
multiply_5 (Multiply)           (None, 4, 4, 1024)   0           multiply_4[0][0]                 
                                                                 conv2d_11[0][0]                  
__________________________________________________________________________________________________
sequential_12 (Sequential)      (None, 8, 8, 512)    8390656     multiply_5[0][0]                 
__________________________________________________________________________________________________
concatenate_5 (Concatenate)     (None, 8, 8, 1024)   0           sequential_12[0][0]              
                                                                 sequential_6[0][0]               
__________________________________________________________________________________________________
global_average_pooling2d_3 (Glo (None, 1024)         0           concatenate_5[0][0]              
__________________________________________________________________________________________________
global_max_pooling2d_3 (GlobalM (None, 1024)         0           concatenate_5[0][0]              
__________________________________________________________________________________________________
dense_6 (Dense)                 (None, 128)          131200      global_average_pooling2d_3[0][0] 
                                                                 global_max_pooling2d_3[0][0]     
__________________________________________________________________________________________________
dense_7 (Dense)                 (None, 1024)         132096      dense_6[0][0]                    
                                                                 dense_6[1][0]                    
__________________________________________________________________________________________________
add_3 (Add)                     (None, 1024)         0           dense_7[0][0]                    
                                                                 dense_7[1][0]                    
__________________________________________________________________________________________________
activation_3 (Activation)       (None, 1024)         0           add_3[0][0]                      
__________________________________________________________________________________________________
multiply_6 (Multiply)           (None, 8, 8, 1024)   0           concatenate_5[0][0]              
                                                                 activation_3[0][0]               
__________________________________________________________________________________________________
lambda_6 (Lambda)               (None, 8, 8, 1)      0           multiply_6[0][0]                 
__________________________________________________________________________________________________
lambda_7 (Lambda)               (None, 8, 8, 1)      0           multiply_6[0][0]                 
__________________________________________________________________________________________________
concatenate_6 (Concatenate)     (None, 8, 8, 2)      0           lambda_6[0][0]                   
                                                                 lambda_7[0][0]                   
__________________________________________________________________________________________________
conv2d_12 (Conv2D)              (None, 8, 8, 1)      98          concatenate_6[0][0]              
__________________________________________________________________________________________________
multiply_7 (Multiply)           (None, 8, 8, 1024)   0           multiply_6[0][0]                 
                                                                 conv2d_12[0][0]                  
__________________________________________________________________________________________________
sequential_13 (Sequential)      (None, 16, 16, 512)  8390656     multiply_7[0][0]                 
__________________________________________________________________________________________________
concatenate_7 (Concatenate)     (None, 16, 16, 1024) 0           sequential_13[0][0]              
                                                                 sequential_5[0][0]               
__________________________________________________________________________________________________
global_average_pooling2d_4 (Glo (None, 1024)         0           concatenate_7[0][0]              
__________________________________________________________________________________________________
global_max_pooling2d_4 (GlobalM (None, 1024)         0           concatenate_7[0][0]              
__________________________________________________________________________________________________
dense_8 (Dense)                 (None, 128)          131200      global_average_pooling2d_4[0][0] 
                                                                 global_max_pooling2d_4[0][0]     
__________________________________________________________________________________________________
dense_9 (Dense)                 (None, 1024)         132096      dense_8[0][0]                    
                                                                 dense_8[1][0]                    
__________________________________________________________________________________________________
add_4 (Add)                     (None, 1024)         0           dense_9[0][0]                    
                                                                 dense_9[1][0]                    
__________________________________________________________________________________________________
activation_4 (Activation)       (None, 1024)         0           add_4[0][0]                      
__________________________________________________________________________________________________
multiply_8 (Multiply)           (None, 16, 16, 1024) 0           concatenate_7[0][0]              
                                                                 activation_4[0][0]               
__________________________________________________________________________________________________
lambda_8 (Lambda)               (None, 16, 16, 1)    0           multiply_8[0][0]                 
__________________________________________________________________________________________________
lambda_9 (Lambda)               (None, 16, 16, 1)    0           multiply_8[0][0]                 
__________________________________________________________________________________________________
concatenate_8 (Concatenate)     (None, 16, 16, 2)    0           lambda_8[0][0]                   
                                                                 lambda_9[0][0]                   
__________________________________________________________________________________________________
conv2d_13 (Conv2D)              (None, 16, 16, 1)    98          concatenate_8[0][0]              
__________________________________________________________________________________________________
multiply_9 (Multiply)           (None, 16, 16, 1024) 0           multiply_8[0][0]                 
                                                                 conv2d_13[0][0]                  
__________________________________________________________________________________________________
sequential_14 (Sequential)      (None, 32, 32, 256)  4195328     multiply_9[0][0]                 
__________________________________________________________________________________________________
concatenate_9 (Concatenate)     (None, 32, 32, 512)  0           sequential_14[0][0]              
                                                                 sequential_4[0][0]               
__________________________________________________________________________________________________
global_average_pooling2d_5 (Glo (None, 512)          0           concatenate_9[0][0]              
__________________________________________________________________________________________________
global_max_pooling2d_5 (GlobalM (None, 512)          0           concatenate_9[0][0]              
__________________________________________________________________________________________________
dense_10 (Dense)                (None, 64)           32832       global_average_pooling2d_5[0][0] 
                                                                 global_max_pooling2d_5[0][0]     
__________________________________________________________________________________________________
dense_11 (Dense)                (None, 512)          33280       dense_10[0][0]                   
                                                                 dense_10[1][0]                   
__________________________________________________________________________________________________
add_5 (Add)                     (None, 512)          0           dense_11[0][0]                   
                                                                 dense_11[1][0]                   
__________________________________________________________________________________________________
activation_5 (Activation)       (None, 512)          0           add_5[0][0]                      
__________________________________________________________________________________________________
multiply_10 (Multiply)          (None, 32, 32, 512)  0           concatenate_9[0][0]              
                                                                 activation_5[0][0]               
__________________________________________________________________________________________________
lambda_10 (Lambda)              (None, 32, 32, 1)    0           multiply_10[0][0]                
__________________________________________________________________________________________________
lambda_11 (Lambda)              (None, 32, 32, 1)    0           multiply_10[0][0]                
__________________________________________________________________________________________________
concatenate_10 (Concatenate)    (None, 32, 32, 2)    0           lambda_10[0][0]                  
                                                                 lambda_11[0][0]                  
__________________________________________________________________________________________________
conv2d_14 (Conv2D)              (None, 32, 32, 1)    98          concatenate_10[0][0]             
__________________________________________________________________________________________________
multiply_11 (Multiply)          (None, 32, 32, 512)  0           multiply_10[0][0]                
                                                                 conv2d_14[0][0]                  
__________________________________________________________________________________________________
sequential_15 (Sequential)      (None, 64, 64, 128)  1049088     multiply_11[0][0]                
__________________________________________________________________________________________________
concatenate_11 (Concatenate)    (None, 64, 64, 256)  0           sequential_15[0][0]              
                                                                 sequential_3[0][0]               
__________________________________________________________________________________________________
global_average_pooling2d_6 (Glo (None, 256)          0           concatenate_11[0][0]             
__________________________________________________________________________________________________
global_max_pooling2d_6 (GlobalM (None, 256)          0           concatenate_11[0][0]             
__________________________________________________________________________________________________
dense_12 (Dense)                (None, 32)           8224        global_average_pooling2d_6[0][0] 
                                                                 global_max_pooling2d_6[0][0]     
__________________________________________________________________________________________________
dense_13 (Dense)                (None, 256)          8448        dense_12[0][0]                   
                                                                 dense_12[1][0]                   
__________________________________________________________________________________________________
add_6 (Add)                     (None, 256)          0           dense_13[0][0]                   
                                                                 dense_13[1][0]                   
__________________________________________________________________________________________________
activation_6 (Activation)       (None, 256)          0           add_6[0][0]                      
__________________________________________________________________________________________________
multiply_12 (Multiply)          (None, 64, 64, 256)  0           concatenate_11[0][0]             
                                                                 activation_6[0][0]               
__________________________________________________________________________________________________
lambda_12 (Lambda)              (None, 64, 64, 1)    0           multiply_12[0][0]                
__________________________________________________________________________________________________
lambda_13 (Lambda)              (None, 64, 64, 1)    0           multiply_12[0][0]                
__________________________________________________________________________________________________
concatenate_12 (Concatenate)    (None, 64, 64, 2)    0           lambda_12[0][0]                  
                                                                 lambda_13[0][0]                  
__________________________________________________________________________________________________
conv2d_15 (Conv2D)              (None, 64, 64, 1)    98          concatenate_12[0][0]             
__________________________________________________________________________________________________
multiply_13 (Multiply)          (None, 64, 64, 256)  0           multiply_12[0][0]                
                                                                 conv2d_15[0][0]                  
__________________________________________________________________________________________________
sequential_16 (Sequential)      (None, 128, 128, 64) 262400      multiply_13[0][0]                
__________________________________________________________________________________________________
concatenate_13 (Concatenate)    (None, 128, 128, 128 0           sequential_16[0][0]              
                                                                 sequential_2[0][0]               
__________________________________________________________________________________________________
global_average_pooling2d_7 (Glo (None, 128)          0           concatenate_13[0][0]             
__________________________________________________________________________________________________
global_max_pooling2d_7 (GlobalM (None, 128)          0           concatenate_13[0][0]             
__________________________________________________________________________________________________
dense_14 (Dense)                (None, 16)           2064        global_average_pooling2d_7[0][0] 
                                                                 global_max_pooling2d_7[0][0]     
__________________________________________________________________________________________________
dense_15 (Dense)                (None, 128)          2176        dense_14[0][0]                   
                                                                 dense_14[1][0]                   
__________________________________________________________________________________________________
add_7 (Add)                     (None, 128)          0           dense_15[0][0]                   
                                                                 dense_15[1][0]                   
__________________________________________________________________________________________________
activation_7 (Activation)       (None, 128)          0           add_7[0][0]                      
__________________________________________________________________________________________________
multiply_14 (Multiply)          (None, 128, 128, 128 0           concatenate_13[0][0]             
                                                                 activation_7[0][0]               
__________________________________________________________________________________________________
lambda_14 (Lambda)              (None, 128, 128, 1)  0           multiply_14[0][0]                
__________________________________________________________________________________________________
lambda_15 (Lambda)              (None, 128, 128, 1)  0           multiply_14[0][0]                
__________________________________________________________________________________________________
concatenate_14 (Concatenate)    (None, 128, 128, 2)  0           lambda_14[0][0]                  
                                                                 lambda_15[0][0]                  
__________________________________________________________________________________________________
conv2d_16 (Conv2D)              (None, 128, 128, 1)  98          concatenate_14[0][0]             
__________________________________________________________________________________________________
multiply_15 (Multiply)          (None, 128, 128, 128 0           multiply_14[0][0]                
                                                                 conv2d_16[0][0]                  
__________________________________________________________________________________________________
conv2d_transpose_8 (Conv2DTrans (None, 256, 256, 3)  6147        multiply_15[0][0]                
==================================================================================================
Total params: 55,633,219
Trainable params: 55,622,211
Non-trainable params: 11,008
__________________________________________________________________________________________________
Model: "model_1"
__________________________________________________________________________________________________
Layer (type)                    Output Shape         Param #     Connected to                     
==================================================================================================
input_image (InputLayer)        [(None, 256, 256, 3) 0                                            
__________________________________________________________________________________________________
target_image (InputLayer)       [(None, 256, 256, 3) 0                                            
__________________________________________________________________________________________________
concatenate_15 (Concatenate)    (None, 256, 256, 6)  0           input_image[0][0]                
                                                                 target_image[0][0]               
__________________________________________________________________________________________________
sequential_17 (Sequential)      (None, 128, 128, 64) 6144        concatenate_15[0][0]             
__________________________________________________________________________________________________
sequential_18 (Sequential)      (None, 64, 64, 128)  131584      sequential_17[0][0]              
__________________________________________________________________________________________________
sequential_19 (Sequential)      (None, 32, 32, 256)  525312      sequential_18[0][0]              
__________________________________________________________________________________________________
zero_padding2d (ZeroPadding2D)  (None, 34, 34, 256)  0           sequential_19[0][0]              
__________________________________________________________________________________________________
conv2d_20 (Conv2D)              (None, 31, 31, 512)  2097152     zero_padding2d[0][0]             
__________________________________________________________________________________________________
batch_normalization_19 (BatchNo (None, 31, 31, 512)  2048        conv2d_20[0][0]                  
__________________________________________________________________________________________________
leaky_re_lu_12 (LeakyReLU)      (None, 31, 31, 512)  0           batch_normalization_19[0][0]     
__________________________________________________________________________________________________
zero_padding2d_1 (ZeroPadding2D (None, 33, 33, 512)  0           leaky_re_lu_12[0][0]             
__________________________________________________________________________________________________
conv2d_21 (Conv2D)              (None, 30, 30, 1)    8193        zero_padding2d_1[0][0]           
==================================================================================================
Total params: 2,770,433
Trainable params: 2,768,641
Non-trainable params: 1,792
__________________________________________________________________________________________________
Model: "model"
__________________________________________________________________________________________________
…
==================================================================================================
Total params: 55,633,219
Trainable params: 55,622,211
Non-trainable params: 11,008
__________________________________________________________________________________________________
Model: "model"
__________________________________________________________________________________________________
Layer (type)                    Output Shape         Param #     Connected to                     
==================================================================================================
input_1 (InputLayer)            [(None, 256, 256, 3) 0                                            
__________________________________________________________________________________________________
sequential_2 (Sequential)       (None, 128, 128, 64) 3328        input_1[0][0]                    
__________________________________________________________________________________________________
sequential_3 (Sequential)       (None, 64, 64, 128)  131584      sequential_2[0][0]               
__________________________________________________________________________________________________
sequential_4 (Sequential)       (None, 32, 32, 256)  525312      sequential_3[0][0]               
__________________________________________________________________________________________________
sequential_5 (Sequential)       (None, 16, 16, 512)  2099200     sequential_4[0][0]               
__________________________________________________________________________________________________
sequential_6 (Sequential)       (None, 8, 8, 512)    4196352     sequential_5[0][0]               
__________________________________________________________________________________________________
sequential_7 (Sequential)       (None, 4, 4, 512)    4196352     sequential_6[0][0]               
__________________________________________________________________________________________________
sequential_8 (Sequential)       (None, 2, 2, 512)    4196352     sequential_7[0][0]               
__________________________________________________________________________________________________
sequential_9 (Sequential)       (None, 1, 1, 512)    4196352     sequential_8[0][0]               
__________________________________________________________________________________________________
global_average_pooling2d (Globa (None, 512)          0           sequential_9[0][0]               
__________________________________________________________________________________________________
global_max_pooling2d (GlobalMax (None, 512)          0           sequential_9[0][0]               
__________________________________________________________________________________________________
…
conv2d_21 (Conv2D)              (None, 32, 32, 128)  32896       sequential_4[0][0]               
__________________________________________________________________________________________________
conv2d_22 (Conv2D)              (None, 32, 32, 128)  32896       sequential_14[0][0]              
__________________________________________________________________________________________________
add_4 (Add)                     (None, 32, 32, 128)  0           conv2d_21[0][0]                  
                                                                 conv2d_22[0][0]                  
__________________________________________________________________________________________________
re_lu_12 (ReLU)                 (None, 32, 32, 128)  0           add_4[0][0]                      
__________________________________________________________________________________________________
conv2d_23 (Conv2D)              (None, 32, 32, 1)    129         re_lu_12[0][0]                   
__________________________________________________________________________________________________
activation_4 (Activation)       (None, 32, 32, 1)    0           conv2d_23[0][0]                  
__________________________________________________________________________________________________
multiply_4 (Multiply)           (None, 32, 32, 256)  0           sequential_4[0][0]               
                                                                 activation_4[0][0]               
__________________________________________________________________________________________________
concatenate_4 (Concatenate)     (None, 32, 32, 512)  0           sequential_14[0][0]              
                                                                 multiply_4[0][0]                 
__________________________________________________________________________________________________
sequential_15 (Sequential)      (None, 64, 64, 128)  1049088     concatenate_4[0][0]              
__________________________________________________________________________________________________
conv2d_24 (Conv2D)              (None, 64, 64, 64)   8256        sequential_3[0][0]               
__________________________________________________________________________________________________
conv2d_25 (Conv2D)              (None, 64, 64, 64)   8256        sequential_15[0][0]              
__________________________________________________________________________________________________
add_5 (Add)                     (None, 64, 64, 64)   0           conv2d_24[0][0]                  
                                                                 conv2d_25[0][0]                  
__________________________________________________________________________________________________
re_lu_13 (ReLU)                 (None, 64, 64, 64)   0           add_5[0][0]                      
__________________________________________________________________________________________________
conv2d_26 (Conv2D)              (None, 64, 64, 1)    65          re_lu_13[0][0]                   
__________________________________________________________________________________________________
activation_5 (Activation)       (None, 64, 64, 1)    0           conv2d_26[0][0]                  
__________________________________________________________________________________________________
multiply_5 (Multiply)           (None, 64, 64, 128)  0           sequential_3[0][0]               
                                                                 activation_5[0][0]               
__________________________________________________________________________________________________
concatenate_5 (Concatenate)     (None, 64, 64, 256)  0           sequential_15[0][0]              
                                                                 multiply_5[0][0]                 
__________________________________________________________________________________________________
sequential_16 (Sequential)      (None, 128, 128, 64) 262400      concatenate_5[0][0]              
__________________________________________________________________________________________________
conv2d_27 (Conv2D)              (None, 128, 128, 32) 2080        sequential_2[0][0]               
__________________________________________________________________________________________________
conv2d_28 (Conv2D)              (None, 128, 128, 32) 2080        sequential_16[0][0]              
__________________________________________________________________________________________________
add_6 (Add)                     (None, 128, 128, 32) 0           conv2d_27[0][0]                  
                                                                 conv2d_28[0][0]                  
__________________________________________________________________________________________________
re_lu_14 (ReLU)                 (None, 128, 128, 32) 0           add_6[0][0]                      
__________________________________________________________________________________________________
conv2d_29 (Conv2D)              (None, 128, 128, 1)  33          re_lu_14[0][0]                   
__________________________________________________________________________________________________
activation_6 (Activation)       (None, 128, 128, 1)  0           conv2d_29[0][0]                  
__________________________________________________________________________________________________
multiply_6 (Multiply)           (None, 128, 128, 64) 0           sequential_2[0][0]               
                                                                 activation_6[0][0]               
__________________________________________________________________________________________________
concatenate_6 (Concatenate)     (None, 128, 128, 128 0           sequential_16[0][0]              
                                                                 multiply_6[0][0]                 
__________________________________________________________________________________________________
conv2d_transpose_8 (Conv2DTrans (None, 256, 256, 3)  6147        concatenate_6[0][0]              
==================================================================================================
Total params: 55,564,202
Trainable params: 55,553,322
Non-trainable params: 10,880
__________________________________________________________________________________________________
Model: "model_1"
__________________________________________________________________________________________________
Layer (type)                    Output Shape         Param #     Connected to                     
==================================================================================================
input_image (InputLayer)        [(None, 256, 256, 3) 0                                            
__________________________________________________________________________________________________
target_image (InputLayer)       [(None, 256, 256, 3) 0                                            
__________________________________________________________________________________________________
concatenate_7 (Concatenate)     (None, 256, 256, 6)  0           input_image[0][0]                
                                                                 target_image[0][0]               
__________________________________________________________________________________________________
sequential_17 (Sequential)      (None, 128, 128, 64) 6144        concatenate_7[0][0]              
__________________________________________________________________________________________________
sequential_18 (Sequential)      (None, 64, 64, 128)  131584      sequential_17[0][0]              
__________________________________________________________________________________________________
sequential_19 (Sequential)      (None, 32, 32, 256)  525312      sequential_18[0][0]              
__________________________________________________________________________________________________
zero_padding2d (ZeroPadding2D)  (None, 34, 34, 256)  0           sequential_19[0][0]              
__________________________________________________________________________________________________
conv2d_33 (Conv2D)              (None, 31, 31, 512)  2097152     zero_padding2d[0][0]             
__________________________________________________________________________________________________
batch_normalization_18 (BatchNo (None, 31, 31, 512)  2048        conv2d_33[0][0]                  
__________________________________________________________________________________________________
leaky_re_lu_12 (LeakyReLU)      (None, 31, 31, 512)  0           batch_normalization_18[0][0]     
__________________________________________________________________________________________________
zero_padding2d_1 (ZeroPadding2D (None, 33, 33, 512)  0           leaky_re_lu_12[0][0]             
__________________________________________________________________________________________________
conv2d_34 (Conv2D)              (None, 30, 30, 1)    8193        zero_padding2d_1[0][0]           
==================================================================================================
Total params: 2,770,433
Trainable params: 2,768,641
Non-trainable params: 1,792
__________________________________________________________________________________________________
Model: "model_2"
__________________________________________________________________________________________________
Layer (type)                    Output Shape         Param #     Connected to                     
==================================================================================================
input_image (InputLayer)        [(None, 256, 256, 3) 0                                            
__________________________________________________________________________________________________
target_image (InputLayer)       [(None, 256, 256, 3) 0                                            
__________________________________________________________________________________________________
concatenate_8 (Concatenate)     (None, 256, 256, 6)  0           input_image[0][0]                
                                                                 target_image[0][0]               
__________________________________________________________________________________________________
sequential_20 (Sequential)      (None, 128, 128, 64) 6144        concatenate_8[0][0]              
__________________________________________________________________________________________________
sequential_21 (Sequential)      (None, 64, 64, 128)  131584      sequential_20[0][0]              
__________________________________________________________________________________________________
sequential_22 (Sequential)      (None, 32, 32, 256)  525312      sequential_21[0][0]              
__________________________________________________________________________________________________
zero_padding2d_2 (ZeroPadding2D (None, 34, 34, 256)  0           sequential_22[0][0]              
__________________________________________________________________________________________________
conv2d_38 (Conv2D)              (None, 31, 31, 512)  2097152     zero_padding2d_2[0][0]           
__________________________________________________________________________________________________
batch_normalization_21 (BatchNo (None, 31, 31, 512)  2048        conv2d_38[0][0]                  
__________________________________________________________________________________________________
leaky_re_lu_16 (LeakyReLU)      (None, 31, 31, 512)  0           batch_normalization_21[0][0]     
__________________________________________________________________________________________________
zero_padding2d_3 (ZeroPadding2D (None, 33, 33, 512)  0           leaky_re_lu_16[0][0]             
__________________________________________________________________________________________________
conv2d_39 (Conv2D)              (None, 30, 30, 1)    8193        zero_padding2d_3[0][0]           
==================================================================================================
Total params: 2,770,433
Trainable params: 2,768,641
Non-trainable params: 1,792
__________________________________________________________________________________________________
Model: "model"
__________________________________________________________________________________________________
…
==================================================================================================
Total params: 31,469,323
Trainable params: 31,457,547
Non-trainable params: 11,776
__________________________________________________________________________________________________
Model: "model"
__________________________________________________________________________________________________
Layer (type)                    Output Shape         Param #     Connected to                     
==================================================================================================
input_1 (InputLayer)            [(None, 256, 256, 3) 0                                            
__________________________________________________________________________________________________
conv2d_1 (Conv2D)               (None, 256, 256, 64) 1792        input_1[0][0]                    
__________________________________________________________________________________________________
batch_normalization_2 (BatchNor (None, 256, 256, 64) 256         conv2d_1[0][0]                   
__________________________________________________________________________________________________
activation (Activation)         (None, 256, 256, 64) 0           batch_normalization_2[0][0]      
__________________________________________________________________________________________________
conv2d_2 (Conv2D)               (None, 256, 256, 64) 36928       activation[0][0]                 
__________________________________________________________________________________________________
batch_normalization_3 (BatchNor (None, 256, 256, 64) 256         conv2d_2[0][0]                   
__________________________________________________________________________________________________
activation_1 (Activation)       (None, 256, 256, 64) 0           batch_normalization_3[0][0]      
__________________________________________________________________________________________________
max_pooling2d (MaxPooling2D)    (None, 128, 128, 64) 0           activation_1[0][0]               
__________________________________________________________________________________________________
conv2d_3 (Conv2D)               (None, 128, 128, 128 73856       max_pooling2d[0][0]              
__________________________________________________________________________________________________
batch_normalization_4 (BatchNor (None, 128, 128, 128 512         conv2d_3[0][0]                   
…
conv2d_4 (Conv2D)               (None, 128, 128, 128 147584      activation_2[0][0]               
__________________________________________________________________________________________________
batch_normalization_5 (BatchNor (None, 128, 128, 128 512         conv2d_4[0][0]                   
__________________________________________________________________________________________________
activation_3 (Activation)       (None, 128, 128, 128 0           batch_normalization_5[0][0]      
__________________________________________________________________________________________________
max_pooling2d_1 (MaxPooling2D)  (None, 64, 64, 128)  0           activation_3[0][0]               
__________________________________________________________________________________________________
conv2d_5 (Conv2D)               (None, 64, 64, 256)  295168      max_pooling2d_1[0][0]            
__________________________________________________________________________________________________
batch_normalization_6 (BatchNor (None, 64, 64, 256)  1024        conv2d_5[0][0]                   
__________________________________________________________________________________________________
activation_4 (Activation)       (None, 64, 64, 256)  0           batch_normalization_6[0][0]      
__________________________________________________________________________________________________
conv2d_6 (Conv2D)               (None, 64, 64, 256)  590080      activation_4[0][0]               
__________________________________________________________________________________________________
batch_normalization_7 (BatchNor (None, 64, 64, 256)  1024        conv2d_6[0][0]                   
__________________________________________________________________________________________________
activation_5 (Activation)       (None, 64, 64, 256)  0           batch_normalization_7[0][0]      
__________________________________________________________________________________________________
max_pooling2d_2 (MaxPooling2D)  (None, 32, 32, 256)  0           activation_5[0][0]               
__________________________________________________________________________________________________
conv2d_7 (Conv2D)               (None, 32, 32, 512)  1180160     max_pooling2d_2[0][0]            
__________________________________________________________________________________________________
batch_normalization_8 (BatchNor (None, 32, 32, 512)  2048        conv2d_7[0][0]                   
__________________________________________________________________________________________________
activation_6 (Activation)       (None, 32, 32, 512)  0           batch_normalization_8[0][0]      
__________________________________________________________________________________________________
conv2d_8 (Conv2D)               (None, 32, 32, 512)  2359808     activation_6[0][0]               
__________________________________________________________________________________________________
batch_normalization_9 (BatchNor (None, 32, 32, 512)  2048        conv2d_8[0][0]                   
__________________________________________________________________________________________________
activation_7 (Activation)       (None, 32, 32, 512)  0           batch_normalization_9[0][0]      
__________________________________________________________________________________________________
max_pooling2d_3 (MaxPooling2D)  (None, 16, 16, 512)  0           activation_7[0][0]               
__________________________________________________________________________________________________
conv2d_9 (Conv2D)               (None, 16, 16, 1024) 4719616     max_pooling2d_3[0][0]            
__________________________________________________________________________________________________
batch_normalization_10 (BatchNo (None, 16, 16, 1024) 4096        conv2d_9[0][0]                   
__________________________________________________________________________________________________
activation_8 (Activation)       (None, 16, 16, 1024) 0           batch_normalization_10[0][0]     
__________________________________________________________________________________________________
conv2d_10 (Conv2D)              (None, 16, 16, 1024) 9438208     activation_8[0][0]               
__________________________________________________________________________________________________
batch_normalization_11 (BatchNo (None, 16, 16, 1024) 4096        conv2d_10[0][0]                  
__________________________________________________________________________________________________
activation_9 (Activation)       (None, 16, 16, 1024) 0           batch_normalization_11[0][0]     
__________________________________________________________________________________________________
up_sampling2d (UpSampling2D)    (None, 32, 32, 1024) 0           activation_9[0][0]               
__________________________________________________________________________________________________
concatenate (Concatenate)       (None, 32, 32, 1536) 0           up_sampling2d[0][0]              
                                                                 activation_7[0][0]               
__________________________________________________________________________________________________
conv2d_11 (Conv2D)              (None, 32, 32, 512)  7078400     concatenate[0][0]                
__________________________________________________________________________________________________
batch_normalization_12 (BatchNo (None, 32, 32, 512)  2048        conv2d_11[0][0]                  
__________________________________________________________________________________________________
activation_10 (Activation)      (None, 32, 32, 512)  0           batch_normalization_12[0][0]     
__________________________________________________________________________________________________
conv2d_12 (Conv2D)              (None, 32, 32, 512)  2359808     activation_10[0][0]              
__________________________________________________________________________________________________
batch_normalization_13 (BatchNo (None, 32, 32, 512)  2048        conv2d_12[0][0]                  
__________________________________________________________________________________________________
activation_11 (Activation)      (None, 32, 32, 512)  0           batch_normalization_13[0][0]     
__________________________________________________________________________________________________
tf.math.reduce_mean (TFOpLambda (None, 1, 1, 512)    0           activation_11[0][0]              
__________________________________________________________________________________________________
tf.math.reduce_max (TFOpLambda) (None, 1, 1, 512)    0           activation_11[0][0]              
__________________________________________________________________________________________________
tf.concat (TFOpLambda)          (None, 1, 1, 1024)   0           tf.math.reduce_mean[0][0]        
                                                                 tf.math.reduce_max[0][0]         
__________________________________________________________________________________________________
dense (Dense)                   (None, 1, 1, 32)     32800       tf.concat[0][0]                  
__________________________________________________________________________________________________
dense_1 (Dense)                 (None, 1, 1, 512)    16896       dense[0][0]                      
__________________________________________________________________________________________________
tf.math.multiply (TFOpLambda)   (None, 32, 32, 512)  0           activation_11[0][0]              
                                                                 dense_1[0][0]                    
__________________________________________________________________________________________________
tf.math.reduce_mean_1 (TFOpLamb (None, 32, 32, 1)    0           tf.math.multiply[0][0]           
__________________________________________________________________________________________________
tf.math.reduce_max_1 (TFOpLambd (None, 32, 32, 1)    0           tf.math.multiply[0][0]           
__________________________________________________________________________________________________
tf.concat_1 (TFOpLambda)        (None, 32, 32, 2)    0           tf.math.reduce_mean_1[0][0]      
                                                                 tf.math.reduce_max_1[0][0]       
__________________________________________________________________________________________________
conv2d_13 (Conv2D)              (None, 32, 32, 1)    99          tf.concat_1[0][0]                
__________________________________________________________________________________________________
tf.math.multiply_1 (TFOpLambda) (None, 32, 32, 512)  0           tf.math.multiply[0][0]           
                                                                 conv2d_13[0][0]                  
__________________________________________________________________________________________________
up_sampling2d_1 (UpSampling2D)  (None, 64, 64, 512)  0           tf.math.multiply_1[0][0]         
__________________________________________________________________________________________________
concatenate_1 (Concatenate)     (None, 64, 64, 768)  0           up_sampling2d_1[0][0]            
                                                                 activation_5[0][0]               
__________________________________________________________________________________________________
conv2d_14 (Conv2D)              (None, 64, 64, 256)  1769728     concatenate_1[0][0]              
__________________________________________________________________________________________________
batch_normalization_14 (BatchNo (None, 64, 64, 256)  1024        conv2d_14[0][0]                  
__________________________________________________________________________________________________
activation_12 (Activation)      (None, 64, 64, 256)  0           batch_normalization_14[0][0]     
__________________________________________________________________________________________________
conv2d_15 (Conv2D)              (None, 64, 64, 256)  590080      activation_12[0][0]              
__________________________________________________________________________________________________
batch_normalization_15 (BatchNo (None, 64, 64, 256)  1024        conv2d_15[0][0]                  
__________________________________________________________________________________________________
activation_13 (Activation)      (None, 64, 64, 256)  0           batch_normalization_15[0][0]     
__________________________________________________________________________________________________
tf.math.reduce_mean_2 (TFOpLamb (None, 1, 1, 256)    0           activation_13[0][0]              
__________________________________________________________________________________________________
tf.math.reduce_max_2 (TFOpLambd (None, 1, 1, 256)    0           activation_13[0][0]              
__________________________________________________________________________________________________
tf.concat_2 (TFOpLambda)        (None, 1, 1, 512)    0           tf.math.reduce_mean_2[0][0]      
                                                                 tf.math.reduce_max_2[0][0]       
__________________________________________________________________________________________________
dense_2 (Dense)                 (None, 1, 1, 16)     8208        tf.concat_2[0][0]                
__________________________________________________________________________________________________
dense_3 (Dense)                 (None, 1, 1, 256)    4352        dense_2[0][0]                    
__________________________________________________________________________________________________
tf.math.multiply_2 (TFOpLambda) (None, 64, 64, 256)  0           activation_13[0][0]              
                                                                 dense_3[0][0]                    
__________________________________________________________________________________________________
tf.math.reduce_mean_3 (TFOpLamb (None, 64, 64, 1)    0           tf.math.multiply_2[0][0]         
__________________________________________________________________________________________________
tf.math.reduce_max_3 (TFOpLambd (None, 64, 64, 1)    0           tf.math.multiply_2[0][0]         
__________________________________________________________________________________________________
tf.concat_3 (TFOpLambda)        (None, 64, 64, 2)    0           tf.math.reduce_mean_3[0][0]      
                                                                 tf.math.reduce_max_3[0][0]       
__________________________________________________________________________________________________
conv2d_16 (Conv2D)              (None, 64, 64, 1)    99          tf.concat_3[0][0]                
__________________________________________________________________________________________________
tf.math.multiply_3 (TFOpLambda) (None, 64, 64, 256)  0           tf.math.multiply_2[0][0]         
                                                                 conv2d_16[0][0]                  
__________________________________________________________________________________________________
up_sampling2d_2 (UpSampling2D)  (None, 128, 128, 256 0           tf.math.multiply_3[0][0]         
__________________________________________________________________________________________________
…
conv2d_18 (Conv2D)              (None, 128, 128, 128 147584      activation_14[0][0]              
__________________________________________________________________________________________________
batch_normalization_17 (BatchNo (None, 128, 128, 128 512         conv2d_18[0][0]                  
__________________________________________________________________________________________________
activation_15 (Activation)      (None, 128, 128, 128 0           batch_normalization_17[0][0]     
__________________________________________________________________________________________________
tf.math.reduce_mean_4 (TFOpLamb (None, 1, 1, 128)    0           activation_15[0][0]              
__________________________________________________________________________________________________
tf.math.reduce_max_4 (TFOpLambd (None, 1, 1, 128)    0           activation_15[0][0]              
__________________________________________________________________________________________________
tf.concat_4 (TFOpLambda)        (None, 1, 1, 256)    0           tf.math.reduce_mean_4[0][0]      
                                                                 tf.math.reduce_max_4[0][0]       
__________________________________________________________________________________________________
dense_4 (Dense)                 (None, 1, 1, 8)      2056        tf.concat_4[0][0]                
__________________________________________________________________________________________________
dense_5 (Dense)                 (None, 1, 1, 128)    1152        dense_4[0][0]                    
__________________________________________________________________________________________________
tf.math.multiply_4 (TFOpLambda) (None, 128, 128, 128 0           activation_15[0][0]              
                                                                 dense_5[0][0]                    
__________________________________________________________________________________________________
tf.math.reduce_mean_5 (TFOpLamb (None, 128, 128, 1)  0           tf.math.multiply_4[0][0]         
__________________________________________________________________________________________________
tf.math.reduce_max_5 (TFOpLambd (None, 128, 128, 1)  0           tf.math.multiply_4[0][0]         
__________________________________________________________________________________________________
tf.concat_5 (TFOpLambda)        (None, 128, 128, 2)  0           tf.math.reduce_mean_5[0][0]      
                                                                 tf.math.reduce_max_5[0][0]       
__________________________________________________________________________________________________
conv2d_19 (Conv2D)              (None, 128, 128, 1)  99          tf.concat_5[0][0]                
__________________________________________________________________________________________________
tf.math.multiply_5 (TFOpLambda) (None, 128, 128, 128 0           tf.math.multiply_4[0][0]         
                                                                 conv2d_19[0][0]                  
__________________________________________________________________________________________________
up_sampling2d_3 (UpSampling2D)  (None, 256, 256, 128 0           tf.math.multiply_5[0][0]         
__________________________________________________________________________________________________
concatenate_3 (Concatenate)     (None, 256, 256, 192 0           up_sampling2d_3[0][0]            
                                                                 activation_1[0][0]               
__________________________________________________________________________________________________
conv2d_20 (Conv2D)              (None, 256, 256, 64) 110656      concatenate_3[0][0]              
__________________________________________________________________________________________________
batch_normalization_18 (BatchNo (None, 256, 256, 64) 256         conv2d_20[0][0]                  
__________________________________________________________________________________________________
activation_16 (Activation)      (None, 256, 256, 64) 0           batch_normalization_18[0][0]     
__________________________________________________________________________________________________
conv2d_21 (Conv2D)              (None, 256, 256, 64) 36928       activation_16[0][0]              
__________________________________________________________________________________________________
batch_normalization_19 (BatchNo (None, 256, 256, 64) 256         conv2d_21[0][0]                  
__________________________________________________________________________________________________
activation_17 (Activation)      (None, 256, 256, 64) 0           batch_normalization_19[0][0]     
__________________________________________________________________________________________________
tf.math.reduce_mean_6 (TFOpLamb (None, 1, 1, 64)     0           activation_17[0][0]              
__________________________________________________________________________________________________
tf.math.reduce_max_6 (TFOpLambd (None, 1, 1, 64)     0           activation_17[0][0]              
__________________________________________________________________________________________________
tf.concat_6 (TFOpLambda)        (None, 1, 1, 128)    0           tf.math.reduce_mean_6[0][0]      
                                                                 tf.math.reduce_max_6[0][0]       
__________________________________________________________________________________________________
dense_6 (Dense)                 (None, 1, 1, 4)      516         tf.concat_6[0][0]                
__________________________________________________________________________________________________
dense_7 (Dense)                 (None, 1, 1, 64)     320         dense_6[0][0]                    
__________________________________________________________________________________________________
tf.math.multiply_6 (TFOpLambda) (None, 256, 256, 64) 0           activation_17[0][0]              
                                                                 dense_7[0][0]                    
__________________________________________________________________________________________________
tf.math.reduce_mean_7 (TFOpLamb (None, 256, 256, 1)  0           tf.math.multiply_6[0][0]         
__________________________________________________________________________________________________
tf.math.reduce_max_7 (TFOpLambd (None, 256, 256, 1)  0           tf.math.multiply_6[0][0]         
__________________________________________________________________________________________________
tf.concat_7 (TFOpLambda)        (None, 256, 256, 2)  0           tf.math.reduce_mean_7[0][0]      
                                                                 tf.math.reduce_max_7[0][0]       
__________________________________________________________________________________________________
conv2d_22 (Conv2D)              (None, 256, 256, 1)  99          tf.concat_7[0][0]                
__________________________________________________________________________________________________
tf.math.multiply_7 (TFOpLambda) (None, 256, 256, 64) 0           tf.math.multiply_6[0][0]         
                                                                 conv2d_22[0][0]                  
__________________________________________________________________________________________________
conv2d_23 (Conv2D)              (None, 256, 256, 3)  195         tf.math.multiply_7[0][0]         
==================================================================================================
Total params: 31,469,323
Trainable params: 31,457,547
Non-trainable params: 11,776
__________________________________________________________________________________________________
Model: "model_1"
__________________________________________________________________________________________________
Layer (type)                    Output Shape         Param #     Connected to                     
==================================================================================================
input_image (InputLayer)        [(None, 256, 256, 3) 0                                            
__________________________________________________________________________________________________
target_image (InputLayer)       [(None, 256, 256, 3) 0                                            
__________________________________________________________________________________________________
concatenate_4 (Concatenate)     (None, 256, 256, 6)  0           input_image[0][0]                
                                                                 target_image[0][0]               
__________________________________________________________________________________________________
sequential_2 (Sequential)       (None, 128, 128, 64) 6144        concatenate_4[0][0]              
__________________________________________________________________________________________________
sequential_3 (Sequential)       (None, 64, 64, 128)  131584      sequential_2[0][0]               
__________________________________________________________________________________________________
sequential_4 (Sequential)       (None, 32, 32, 256)  525312      sequential_3[0][0]               
__________________________________________________________________________________________________
zero_padding2d (ZeroPadding2D)  (None, 34, 34, 256)  0           sequential_4[0][0]               
__________________________________________________________________________________________________
conv2d_27 (Conv2D)              (None, 31, 31, 512)  2097152     zero_padding2d[0][0]             
__________________________________________________________________________________________________
batch_normalization_22 (BatchNo (None, 31, 31, 512)  2048        conv2d_27[0][0]                  
__________________________________________________________________________________________________
leaky_re_lu_4 (LeakyReLU)       (None, 31, 31, 512)  0           batch_normalization_22[0][0]     
__________________________________________________________________________________________________
zero_padding2d_1 (ZeroPadding2D (None, 33, 33, 512)  0           leaky_re_lu_4[0][0]              
__________________________________________________________________________________________________
conv2d_28 (Conv2D)              (None, 30, 30, 1)    8193        zero_padding2d_1[0][0]           
==================================================================================================
Total params: 2,770,433
Trainable params: 2,768,641
Non-trainable params: 1,792
__________________________________________________________________________________________________
Model: "model"
__________________________________________________________________________________________________
…
__________________________________________________________________________________________________
up_sampling2d_3 (UpSampling2D)  (None, 256, 256, 128 0           tf.math.multiply_5[0][0]         
__________________________________________________________________________________________________
concatenate_3 (Concatenate)     (None, 256, 256, 192 0           up_sampling2d_3[0][0]            
                                                                 activation_1[0][0]               
__________________________________________________________________________________________________
conv2d_20 (Conv2D)              (None, 256, 256, 64) 110656      concatenate_3[0][0]              
__________________________________________________________________________________________________
batch_normalization_18 (BatchNo (None, 256, 256, 64) 256         conv2d_20[0][0]                  
__________________________________________________________________________________________________
activation_16 (Activation)      (None, 256, 256, 64) 0           batch_normalization_18[0][0]     
__________________________________________________________________________________________________
conv2d_21 (Conv2D)              (None, 256, 256, 64) 36928       activation_16[0][0]              
__________________________________________________________________________________________________
batch_normalization_19 (BatchNo (None, 256, 256, 64) 256         conv2d_21[0][0]                  
__________________________________________________________________________________________________
activation_17 (Activation)      (None, 256, 256, 64) 0           batch_normalization_19[0][0]     
__________________________________________________________________________________________________
tf.math.reduce_mean_6 (TFOpLamb (None, 1, 1, 64)     0           activation_17[0][0]              
__________________________________________________________________________________________________
tf.math.reduce_max_6 (TFOpLambd (None, 1, 1, 64)     0           activation_17[0][0]              
__________________________________________________________________________________________________
tf.concat_6 (TFOpLambda)        (None, 1, 1, 128)    0           tf.math.reduce_mean_6[0][0]      
                                                                 tf.math.reduce_max_6[0][0]       
__________________________________________________________________________________________________
dense_6 (Dense)                 (None, 1, 1, 4)      516         tf.concat_6[0][0]                
__________________________________________________________________________________________________
dense_7 (Dense)                 (None, 1, 1, 64)     320         dense_6[0][0]                    
__________________________________________________________________________________________________
tf.math.multiply_6 (TFOpLambda) (None, 256, 256, 64) 0           activation_17[0][0]              
                                                                 dense_7[0][0]                    
__________________________________________________________________________________________________
tf.math.reduce_mean_7 (TFOpLamb (None, 256, 256, 1)  0           tf.math.multiply_6[0][0]         
__________________________________________________________________________________________________
tf.math.reduce_max_7 (TFOpLambd (None, 256, 256, 1)  0           tf.math.multiply_6[0][0]         
__________________________________________________________________________________________________
tf.concat_7 (TFOpLambda)        (None, 256, 256, 2)  0           tf.math.reduce_mean_7[0][0]      
                                                                 tf.math.reduce_max_7[0][0]       
__________________________________________________________________________________________________
conv2d_22 (Conv2D)              (None, 256, 256, 1)  99          tf.concat_7[0][0]                
__________________________________________________________________________________________________
tf.math.multiply_7 (TFOpLambda) (None, 256, 256, 64) 0           tf.math.multiply_6[0][0]         
                                                                 conv2d_22[0][0]                  
__________________________________________________________________________________________________
conv2d_23 (Conv2D)              (None, 256, 256, 3)  195         tf.math.multiply_7[0][0]         
==================================================================================================
Total params: 31,469,323
Trainable params: 31,457,547
Non-trainable params: 11,776
__________________________________________________________________________________________________
Model: "model_1"
__________________________________________________________________________________________________
Layer (type)                    Output Shape         Param #     Connected to                     
==================================================================================================
input_image (InputLayer)        [(None, 256, 256, 3) 0                                            
__________________________________________________________________________________________________
target_image (InputLayer)       [(None, 256, 256, 3) 0                                            
__________________________________________________________________________________________________
concatenate_4 (Concatenate)     (None, 256, 256, 6)  0           input_image[0][0]                
                                                                 target_image[0][0]               
__________________________________________________________________________________________________
sequential_2 (Sequential)       (None, 128, 128, 64) 6144        concatenate_4[0][0]              
__________________________________________________________________________________________________
sequential_3 (Sequential)       (None, 64, 64, 128)  131584      sequential_2[0][0]               
__________________________________________________________________________________________________
sequential_4 (Sequential)       (None, 32, 32, 256)  525312      sequential_3[0][0]               
__________________________________________________________________________________________________
zero_padding2d (ZeroPadding2D)  (None, 34, 34, 256)  0           sequential_4[0][0]               
__________________________________________________________________________________________________
conv2d_27 (Conv2D)              (None, 31, 31, 512)  2097152     zero_padding2d[0][0]             
__________________________________________________________________________________________________
batch_normalization_22 (BatchNo (None, 31, 31, 512)  2048        conv2d_27[0][0]                  
__________________________________________________________________________________________________
leaky_re_lu_4 (LeakyReLU)       (None, 31, 31, 512)  0           batch_normalization_22[0][0]     
__________________________________________________________________________________________________
zero_padding2d_1 (ZeroPadding2D (None, 33, 33, 512)  0           leaky_re_lu_4[0][0]              
__________________________________________________________________________________________________
conv2d_28 (Conv2D)              (None, 30, 30, 1)    8193        zero_padding2d_1[0][0]           
==================================================================================================
Total params: 2,770,433
Trainable params: 2,768,641
Non-trainable params: 1,792
__________________________________________________________________________________________________
Model: "model_2"
__________________________________________________________________________________________________
Layer (type)                    Output Shape         Param #     Connected to                     
==================================================================================================
input_image (InputLayer)        [(None, 256, 256, 3) 0                                            
__________________________________________________________________________________________________
target_image (InputLayer)       [(None, 256, 256, 3) 0                                            
__________________________________________________________________________________________________
concatenate_5 (Concatenate)     (None, 256, 256, 6)  0           input_image[0][0]                
                                                                 target_image[0][0]               
__________________________________________________________________________________________________
sequential_5 (Sequential)       (None, 128, 128, 64) 6144        concatenate_5[0][0]              
__________________________________________________________________________________________________
sequential_6 (Sequential)       (None, 64, 64, 128)  131584      sequential_5[0][0]               
__________________________________________________________________________________________________
sequential_7 (Sequential)       (None, 32, 32, 256)  525312      sequential_6[0][0]               
__________________________________________________________________________________________________
zero_padding2d_2 (ZeroPadding2D (None, 34, 34, 256)  0           sequential_7[0][0]               
__________________________________________________________________________________________________
conv2d_32 (Conv2D)              (None, 31, 31, 512)  2097152     zero_padding2d_2[0][0]           
__________________________________________________________________________________________________
batch_normalization_25 (BatchNo (None, 31, 31, 512)  2048        conv2d_32[0][0]                  
__________________________________________________________________________________________________
leaky_re_lu_8 (LeakyReLU)       (None, 31, 31, 512)  0           batch_normalization_25[0][0]     
__________________________________________________________________________________________________
zero_padding2d_3 (ZeroPadding2D (None, 33, 33, 512)  0           leaky_re_lu_8[0][0]              
__________________________________________________________________________________________________
conv2d_33 (Conv2D)              (None, 30, 30, 1)    8193        zero_padding2d_3[0][0]           
==================================================================================================
Total params: 2,770,433
Trainable params: 2,768,641
Non-trainable params: 1,792
__________________________________________________________________________________________________
Model: "model"
__________________________________________________________________________________________________
…
